notebooks/DL_saved_models/CNN_Credit.pt (torch, 13286 bytes, 5 tensors)

conv1.weight f4 [16, 1, 3]
00000000: ef79 903f 0cdd c3be 0489 fb3e b23c 253f
00000010: 9e64 693e 0c80 413f 2637 bbbe 8893 8f3f
00000020: 3365 173f 0b4a 5c3f ab01 543f 917c f23e
00000030: 25b3 c4be 9ceb 323f e254 ecbe 5e5f ac3f
00000040: c9cf 32bf 9b62 cdbe a1ec ecbc d09e b2be
00000050: c723 14bf fb91 863e f22b 953e 44d7 363e
00000060: ab64 5c3e d174 bfbd ef62 debd 0f24 88bd
00000070: a914 4e3f 12a6 3cbf eb6c 9ebf 82bd f13d
00000080: 3f4c 01bf b720 57bf ccd3 52bf 569f bcbf
00000090: 5150 e13b 2ff8 81bc bef6 f7bc c8a0 573f
000000a0: a41e 32be 3cbd 613f 52ad 76be 8ba0 a4bf
000000b0: 7d4e 403f 9590 6e3f e724 e6be 24e0 24bf
1.1287211 -0.38254583 0.49127972 0.6454574 0.22792289 0.7558601 -0.36565512 1.1216898
0.5913879 0.8605048 0.82815045 0.47360662 -0.38417926 0.6989076 -0.4615851 1.3466604
-0.69848305 -0.40114293 -0.028921427 -0.3488679 -0.5786709 0.2628325 0.2913509 0.17855555
0.21522777 -0.09348453 -0.10858714 -0.06647503 0.80500275 -0.73690903 -1.2376989 0.11803724
-0.5050697 -0.84034294 -0.82354426 -1.4736125 0.0068760295 -0.015865413 -0.030269023 0.8422971
-0.17394501 0.88179374 -0.24089554 -1.2861494 0.75119764 0.93189365 -0.4495003 -0.6440451

conv1.bias f4 [16]
00000000: 4688 5abf 6898 e0be d5e2 4ebf bb16 4abf
00000010: 24b2 2fbf db8b 56bf d156 243f 2d58 2f3d
00000020: 1679 edbe abd4 91be a03b 08bf b678 06bf
00000030: db15 45be 3145 35bf 4be2 c4be f23f 243e
-0.85364187 -0.43866277 -0.8081487 -0.78940934 -0.68631196 -0.8380715 0.6419497 0.0428087
-0.46381444 -0.28482565 -0.5321598 -0.5252794 -0.19246618 -0.708087 -0.38453898 0.16040018

conv2.weight f4 [32, 16, 3]
00000000: 6a06 00bf 751b 88be 34a5 bb3c 8e03 62bf
00000010: aa1e 223e 47b3 cabf 1942 90be a4e4 343d
00000020: dcbb 26c0 b460 0fc0 c5c6 703e 5cfd 7cbe
00000030: f37a d8bf 70b4 9a3e 965b 23bf 7634 a73e
00000040: f1ba 2ebf 02a7 f63e 3d7c 68be 6153 2cbe
00000050: ae8f 213f 351d a13d 973c 813e 5459 bebe
00000060: 1cbf 153e 20e5 afbd 57fe a43c 7bb3 3c3e
00000070: 3665 223f 1710 d0be 4e15 09c0 dee2 b83d
00000080: c0c3 7dbe 93e2 b1be fa15 b9bd 70f2 633e
00000090: a86e 54bf 2426 cb3e 7ac9 28be 3529 84bf
000000a0: e71f 0dbf 2b99 3dbf 43ae 143f 6902 9cbe
000000b0: 1128 31bf b997 77bf 2cab 063f da04 303f
000000c0: fc00 6d3d d7d2 90be ad3e d33e f22b d43d
000000d0: 0998 a1be 63dd c73e 7a35 153f 7bd1 84bd
000000e0: dfd6 9a3f b2e8 7dbd 2a96 20be 26ee 8c3a
000000f0: c2b2 50bf a8dc 02bf f790 b33c a043 3c3f
00000100: edc3 f9bd 5a80 0bbf fc46 ecbe 14c3 b6bd
00000110: a9ff cabf 604d 053e 7126 b93e 4f84 cb3e
00000120: 4e67 14be 5c7d 633e ccac 9dbe 1014 d03e
00000130: 4eb0 9fbe f836 203e ff84 d1bf 92d3 a2bd
00000140: 17ac a1bf 5051 66bf f26b 873e 6580 c6bf
00000150: 69c9 c73e 4f82 673c db9f aa3e f57f a1bd
00000160: 53cd 61bf 390a 633f 2896 efbe 5c10 303f
00000170: df69 df3d e9d9 693f 7d0a cabe e87d b1be
00000180: 2dab 34bd 511b 713e a8f9 f73e d8bf a03e
00000190: 0f10 e5bd 421e 92be 42c7 013f 91fd 83be
000001a0: 116e c3be 0c23 00bf ad37 4bbe 5940 6cbf
000001b0: f42d f63e 8158 863d a40d 08bf 047b 12bf
000001c0: 0bfb 893e e664 123f c977 ca3d 396f 65be
000001d0: ba65 d5be fb1b a6be 298b 883d 70db fa3e
000001e0: b3e0 e43d 0580 603e 48de 34be bc31 073f
000001f0: 35ee eb3d fa91 37bf 3d0c 2d3f 9a6c cd3e
00000200: 27f9 cc3e 3ef3 bebc 4a70 f63e ffd8 bebf
00000210: 5e6c 42be 27e9 25bd c5fd bc3e d12e 9c3d
00000220: 09f6 b83d 8bfb 3ebf 4d5b 28be ce07 83be
00000230: d9d3 b7bf 4c0b 643d e252 5abe 4fc8 c33e
00000240: bb71 683f 6dbe 96be a13d a7bf 3670 41bd
00000250: b60d bf3d 8050 1d3f 1f5a 56bf b9a6 07bf
00000260: 6055 e83e d097 2cbf acd3 94bf d1cc 973d
00000270: 04a7 093f 1f97 a0be 8413 ed3e f770 62bf
00000280: 6756 6cbf 058e d7be c998 e03d 5056 0fbe
00000290: a760 7bbe 1537 b83d 23bb 2f3f c65d ac3f
000002a0: 389d b5be 7996 793e d631 8f3e 49b5 74be
000002b0: ea14 fcbb 7dcf dabd afeb 1bbf 3b18 00bd
000002c0: 14fd 13c0 f009 1dc0 36de 16bd a037 cbbe
000002d0: 1142 553b 5d14 b93e aaec 973e ce6f d63e
000002e0: 8f58 babe cb69 82bf d9f6 ec3e d2a9 59bf
000002f0: ac14 fabf 0378 b8bc c200 063e 1c45 393f
00000300: 5511 923e ba10 04c0 55a0 bb3e 0a00 11be
00000310: 2a19 0abf a4b8 3f3e e6a4 743e 95ca 7ebd
00000320: c964 79bf b883 5ebd bdb9 103e 9d8c c6be
00000330: 2975 053e d688 6abf 08f9 92bf fdc1 1dc0
00000340: 03ed 9fbf 573d 933d 9d3c 1d3f 7770 a8be
00000350: 101a 023f f674 abbe 49f0 b63d d902 963e
00000360: 4082 28be 39c0 da3e 7782 41bd 6d89 17bf
00000370: 3964 313e 332c e63e fdb1 153f bb58 c2bf
00000380: e55b 7abf 00f5 a43e af75 0bc0 1dbc a1bd
00000390: 1a49 58be c14e 6d3e eca4 7d3d 1145 c03e
000003a0: fe6e 97bf 6f3a 03be 2712 eb3e 6057 bc3e
000003b0: 3df2 93be 747b 8bbe 970c abbd bfbc 013e
000003c0: d0b5 3e3f d0da f5bd fe0d 1ebf c773 2cbf
000003d0: d61a 4dbf 3d2f 15be 4d9f 363f ad0b 72be
000003e0: 65cb 97bf 9ff4 afbf a273 383e f28b 4fbe
000003f0: 3d0b 51bf 6c2a ddbe ed75 52be 2b3e c53e
-0.5000979 -0.26583448 0.022905923 -0.88286674 0.1583201 -1.5835961 -0.28175429 0.04416336
-2.605216 -2.2402773 0.23513325 -0.24706024 -1.6912521 0.30215788 -0.63811624 0.32657212
-0.68254 0.48174292 -0.22703643 -0.16828682 0.6310986 0.07866899 0.2524154 -0.37177527
0.14623684 -0.08588624 0.02014081 0.18427841 0.63435686 -0.40637276 -2.1419253 0.090276465
-0.24781704 -0.34743175 -0.09037395 0.22260451 -0.8298135 0.39677536 -0.16483107 -1.0325075
-0.55126804 -0.7406184 0.580784 -0.3047059 -0.6920176 -0.96715885 0.5260494 0.687574
0.057862267 -0.28285858 0.41258755 0.103599444 -0.31561306 0.39036092 0.58284724 -0.06485268
1.2096823 -0.061989494 -0.15682283 0.0010752126 -0.8152276 -0.51117945 0.02191971 0.7354069
-0.12195573 -0.54492724 -0.46147907 -0.08923927 -1.5859271 0.13017797 0.3616214 0.3974938
-0.14492533 0.2221579 -0.30795896 0.40640306 -0.31189197 0.15645969 -1.6368712 -0.0795051
-1.2630643 -0.89967823 0.26449543 -1.5507933 0.3902085 0.014130189 0.33325085 -0.07885734
-0.88203925 0.88687474 -0.46794248 0.6877496 0.10908865 0.9134813 -0.39461127 -0.3466637
-0.04410856 0.23545577 0.4843266 0.31396365 -0.111847036 -0.2853871 0.5069467 -0.25779393
-0.38169912 -0.5005348 -0.19845457 -0.92285687 0.48081934 0.065598495 -0.53145814 -0.57218957
0.26949343 0.5718521 0.098861285 -0.2240571 -0.41679174 -0.32443222 0.06667168 0.48995543
0.111756705 0.21923836 -0.17662919 0.52810264 0.11520044 -0.7170712 0.675968 0.4012192
0.40033838 -0.023309346 0.48132545 -1.4909972 -0.18986651 -0.040505555 0.3691236 0.07626117
0.090313025 -0.74602574 -0.16441078 -0.25591892 -1.4361526 0.055674836 -0.2132068 0.3823876
0.9079854 -0.29442158 -1.3065683 -0.047226153 0.09328787 0.6145096 -0.83731264 -0.52988774
0.45377636 -0.6741915 -1.1627097 0.074121125 0.5377047 -0.31365296 0.46303952 -0.8845362
-0.9231934 -0.4210054 0.109666415 -0.1399777 -0.24548589 0.08994881 0.6864492 1.3466117
-0.3547151 0.24373807 0.2796771 -0.2389728 -0.007692923 -0.106841065 -0.609065 -0.031273108
-2.3123217 -2.4537315 -0.03683301 -0.39690876 0.00325406 0.36148348 0.29672748 0.41882175
-0.3639569 -1.0188535 0.4628208 -0.8502475 -1.9537559 -0.022518164 0.13086227 0.7237108
0.28528848 -2.063521 0.3664576 -0.14160171 -0.5394465 0.18722779 0.23891029 -0.062204916
-0.9741941 -0.054324836 0.14133354 -0.38779154 0.13032974 -0.91615045 -1.1482248 -2.464965
-1.2494205 0.07189434 0.61420614 -0.32898304 0.5082102 -0.33487672 0.089325495 0.29299048
-0.16455936 0.4272478 -0.04724356 -0.5919407 0.17323388 0.44955596 0.58474714 -1.5183328
-0.9779647 0.3221817 -2.1790578 -0.07897208 -0.21121636 0.23174573 0.06192486 0.37552693
-1.1830747 -0.1281526 0.45912287 0.36785412 -0.2889575 -0.27242625 -0.08352011 0.12669657
0.74496174 -0.12004626 -0.617401 -0.6736416 -0.80119073 -0.14568801 0.71336824 -0.23637266
-1.1858946 -1.3746527 0.1801286 -0.20268229 -0.81657773 -0.43196428 -0.20552798 0.38523993

conv2.bias f4 [32]
00000000: 6bbf 173e 3f28 d2be 2fef 133e 46e7 df3e
00000010: 3153 093f 5811 273c be17 293f cc42 8a3e
00000020: 7291 503f 10c5 c83e 1bb9 de3e 63cc 3c3f
00000030: 8fd4 03bf 3f78 b63e a353 47bf 05e0 653d
00000040: 8265 1e3e 3af5 12bf 85ef 0e3f b7f1 013f
00000050: 8af7 d73e 52a9 df3d ca50 5ebe 4370 fc3e
00000060: 1062 523e 4581 533f fd4d 05bf 66a3 f73e
00000070: d297 553e 7e9d 1b3f 483f 063f bd0b cb3e
0.14819114 -0.4104633 0.1444671 0.43731135 0.53642565 0.010197006 0.6605185 0.27004087
0.8147193 0.39212847 0.435006 0.7374937 -0.51496214 0.35638615 -0.77861995 0.056121845
0.1546841 -0.57405436 0.5583423 0.5075945 0.42181045 0.10920967 -0.21710506 0.493044
0.2054522 0.82619125 -0.52072126 0.4836685 0.20858696 0.6078719 0.5244031 0.39657393

fc1.weight f4 [1, 1024]
00000000: d602 2dbe 4278 73be dd0f 113f f8b1 bbbe
00000010: 4238 0cbf d0fa d33f 65b6 893f 9ece 04c0
00000020: b871 203f 7c3a 04bf d182 8bbc 96f0 ab3e
00000030: d211 173e f90b 843f 001e ea3e 8971 8c3d
00000040: 0319 cb3f 40b1 53bf 6224 323f 1df7 b6bd
00000050: 529b 003f f61e 96be ba26 323e 8381 d1bf
00000060: 332b 833e 4bae 363d 184b b4bc 8342 b9bf
00000070: f49b dfbe aedb fb3e fc87 c63e 7743 d43f
00000080: dc8d 5a3e 7e23 cebf 9d43 0b3f 6e6c 1d3f
00000090: ea31 703f ba23 85bf 0035 0c3f 0e2b 533e
000000a0: 463a 97bf 4579 5f3f a2b6 5a3e e322 123f
000000b0: e4a7 03bf 3d2e 363f 6a1b 04bf cbf3 a13e
000000c0: 10fc 52bf 5b00 fdbe 92d1 83be f129 a9bd
000000d0: da75 283f 0666 c23f ff7f d03e 563f 89bf
000000e0: cd00 053f 9100 77bd 6170 4dbf 8265 31be
000000f0: 1db1 60bf b6ea 9f3d 530f 513f ebbd fc3c
00000100: 7ffb fb3d b944 b5bf d156 cf3e 241f b43e
00000110: f88f a73e ecfb 123f 8619 fdbe b45d a73d
00000120: ff31 d33e ec95 8f3f 71c2 9b3f 1ca7 513d
00000130: b0a2 c9be 3305 04bf c4ea 0cbe fbbb fbbd
00000140: 9d08 813d aa60 15bf 35ca 193e b1c2 033d
00000150: d871 b8be e72f 873b b098 8a3d 91c4 b33e
00000160: e86f 89bf fa2a cfbd 5c15 b1bd 0f52 103d
00000170: e0bf 193e 1ba1 453e 64ec 093e 3b16 913e
00000180: 6e01 ebbe 2f4d a8bf 7ac7 1cbe 1114 863d
00000190: 8de6 aa3f c263 ea3e c510 23bd 4e66 18bf
000001a0: a49b 12be f0ad a03d 9cdf 56be 1ee4 0ac0
000001b0: 4585 44be c9d6 81be 97fa 87be 91a9 603f
000001c0: 131a 923e d9ca cf3c a17a 143f afc9 213f
000001d0: 58a1 e0be 236a 0fbe 7f45 bc3e 176a 493f
000001e0: d8ef 613f 614e 773f 7463 d43e cb9c bcbf
000001f0: f1e6 03bf 304c 13bf 094c 26bf 69ff 043f
00000200: 7e84 a33d aa3c 5fbf 24e7 15be 5c00 64be
00000210: e548 43bf a417 783f d9db 073e b129 99bd
00000220: 11b3 943e a5e2 6fbd c503 273f a76f c13f
00000230: b1bb 5a3f 533d 81bf b3bd 56bf 4fe5 9d3e
00000240: 2aed 24bf 309a 813e 5921 cbbd b093 343b
00000250: a62a 61bd 22ef 523e db09 713f 530a 46be
00000260: e0dd 103f 4602 94bf ce29 22bf 5d92 113e
00000270: fa35 cbbc 6ef5 d43d da4f d8bc 17e6 14be
00000280: f6ce d0be 6cfd a13e 134f 143f eebc e9be
00000290: 6dc1 e1be 191f f53d 7950 d83e 834d f4bd
000002a0: b9fd 2c3f 66ed 75bf bf26 2a3f 09bb 57be
000002b0: 436c ff3e a65d 3ebe 7a71 183f 08cc 96be
000002c0: 7eb5 aa3d a02d 0d3f 1db0 9c3f 3bc1 49be
000002d0: e199 bd3e f4c3 c2bf 7763 9ebe adff 4bbe
000002e0: 0a53 5e3f 0039 4bbf 6256 44be e541 0d3d
000002f0: f337 aa3e 465e 2b3f 5f01 10bf e120 9ebe
00000300: 26cf abbf ebc3 27bd 9e77 623e f378 c0bd
00000310: 0030 953f 41f0 6a3e dcaa cebf 449e 83bd
00000320: 2cb5 35bf da67 db3f 76c2 6abe 8b60 043e
00000330: 5cd3 b0bf 090b 813f 0d32 13bf e2fe ad3e
00000340: 8b72 a93f dbe7 973b d58b 9e3e abfc c8bd
00000350: 10e0 6ebf 275d 123f 444c 17bf e820 bd3e
00000360: cdd9 0240 c20b a9bd 2ef8 f83e 5a15 9b3e
00000370: 6a9b 003f 1956 a93f d6e1 823d 9d67 4bbe
00000380: 0a1c 2b3e ffef 01bf 5641 463e bd8d 463e
00000390: 72a3 233e a11a 4fbf 8f02 7ebd 0fb5 4ebd
000003a0: 189e 6d3e ccde ba3e 9343 5ebe d56f 503f
000003b0: e90f 44bd ab04 9d3f c56e 7a3e f1a3 85bf
000003c0: 00f1 1cbe db2d 5cbe 8311 cbbd 838d 3d3e
000003d0: 90ff b23e ebdf 723d d0d9 2cbe 51ad 5e3c
000003e0: 158f c0bd 9fb8 093e b917 553f 1eff 7c3e
000003f0: 7a86 85bf 147a a1bc d58a 47bd 097a 63bf
-0.16895613 -0.23776343 0.5666483 -0.36659217 -0.5477334 1.6560917 1.0758787 -2.075111
0.6267352 -0.5165174 -0.017030152 0.3358199 0.14752892 1.0316154 0.45726013 0.068575926
1.5867008 -0.8269234 0.69586766 -0.08933852 0.50237 -0.29320496 0.17397586 -1.6367649
0.25618896 0.044599812 -0.022008464 -1.4473423 -0.4367367 0.4919104 0.38775623 1.6583089
0.21343178 -1.6104581 0.54400045 0.61493576 0.9382616 -1.0401528 0.5476837 0.20621893
-1.1814659 0.8729442 0.21358731 0.5708448 -0.51428056 0.71164304 -0.5160433 0.31631312
-0.82415867 -0.49414334 -0.25745827 -0.08259953 0.6580483 1.5187385 0.40722653 -1.0722454
0.51954347 -0.060303275 -0.802496 -0.17323878 -0.87770253 0.078084394 0.8166401 0.030852279
0.123038284 -1.4161597 0.40495923 0.35180008 0.32727027 0.5741565 -0.49433535 0.08172169
0.41249081 1.1217628 1.2168714 0.05118476 -0.39381933 -0.51570433 -0.13761431 -0.12291714
0.06300471 -0.5835062 0.15018542 0.032168094 -0.36024356 0.0041255835 0.06767404 0.35110906
-1.0737276 -0.10115619 -0.08646652 0.035234507 0.15014601 0.19299738 0.13469082 0.28337273
-0.45899528 -1.3148555 -0.1531047 0.06546796 1.3351609 0.45779234 -0.039810915 -0.59531105
-0.14317185 0.07845676 -0.20983738 -2.1701732 -0.19191463 -0.2535918 -0.26558372 0.8775874
0.28535518 0.02536528 0.57999617 0.6319837 -0.43873096 -0.14005332 0.3677177 0.78677505
0.882566 0.9660397 0.41482127 -1.473535 -0.51524264 -0.5753813 -0.6495977 0.51952225
0.07984255 -0.8720194 -0.14638954 -0.22265762 -0.76283103 0.9691107 0.13267459 -0.07478655
0.29042867 -0.058565754 0.65240127 1.5112199 0.85442644 -1.009684 -0.8388321 0.3083901
-0.64424384 0.25312948 -0.0991847 0.002755385 -0.054972313 0.20599034 0.94155663 -0.19339876
0.56588554 -1.1563194 -0.6334504 0.1421599 -0.024806011 0.103983745 -0.026405264 -0.14540897
-0.407829 0.31638658 0.5793316 -0.45651954 -0.44092885 0.11968822 0.42248896 -0.11928847
0.6757465 -0.96065366 0.6646537 -0.21067442 0.49887285 -0.18590412 0.5954815 -0.29452538
0.08335398 0.55147743 1.2241246 -0.19702618 0.37031463 -1.521605 -0.3093526 -0.19921751
0.8684546 -0.7938385 -0.19173577 0.03448667 0.3324581 0.66940725 -0.5625209 -0.3088446
-1.3422592 -0.040958326 0.22115943 -0.09398069 1.1655273 0.22943212 -1.6145892 -0.06426671
-0.7097957 1.7141068 -0.22925743 0.12927453 -1.3814502 1.0081493 -0.57498246 0.33983523
1.3238081 0.0046357936 0.30966058 -0.098138176 -0.9331064 0.5717339 -0.5910075 0.36939168
2.0445435 -0.08254196 0.48626846 0.30289727 0.50237143 1.32294 0.06390731 -0.19863744
0.16709915 -0.5075683 0.19360861 0.19390006 0.15980318 -0.8090001 -0.06201416 -0.05046564
0.23204839 0.36498106 -0.21705465 0.8142064 -0.047866736 1.226705 0.24456318 -1.0440656
-0.15326309 -0.21501867 -0.099154495 0.18511014 0.34960604 0.059295576 -0.16879964 0.013591127
-0.09402291 0.13449334 0.8323932 0.24706694 -1.0431664 -0.019711532 -0.048716385 -0.88858086
