notebooks/DL_saved_models/CNN_Fraud.pt (torch, 34012 bytes, 5 tensors)

conv1.weight f4 [16, 1, 3]
0	0xbfa1b6b9	-1.2633888
1	0x3eb6bb77	0.356899
2	0x3efab418	0.48965526
3	0x3ee1b0d5	0.44080225
4	0x3df13226	0.11777143
5	0x3e3bdd1e	0.18346068
6	0xbef60517	-0.48050758
7	0x3ea49376	0.32143754
8	0xbe21c79b	-0.157988
9	0xbb4c5e95	-0.0031184305
10	0xbca31011	-0.019905122
11	0xbb8c32ed	-0.0042785318
12	0x3ec58010	0.38574266
13	0x3e669c0f	0.22520469
14	0x3eb76ef8	0.3582685
15	0x3d205056	0.039139114
16	0xbc61d415	-0.013783474
17	0x3f57666f	0.84140676
18	0xbd0c0894	-0.03418787
19	0xbdb9995e	-0.090624556
20	0x391b03fc	0.00014783436
21	0xbeb8ef31	-0.3611999
22	0x3eca196b	0.39472517
23	0x3e870b97	0.2637603
24	0xbc9e96b7	-0.019358976
25	0x3dbf674b	0.093458734
26	0xbf17face	-0.5936707
27	0xbf889f2f	-1.0673579
28	0x3e1c372c	0.15255421
29	0x3dc94644	0.09827855
30	0xb8087c54	-3.2540716e-05
31	0xbb262a2e	-0.002535473
32	0xbcd9353d	-0.026514644
33	0x3e75868a	0.23977104
34	0xbf4c7391	-0.7986384
35	0x3ea71113	0.32630214
36	0xbcabd2a2	-0.020974461
37	0x3d2637e4	0.040580645
38	0xbf8ac6d5	-1.0841929
39	0x3dbf5e43	0.09344151
40	0xbf89467a	-1.0724633
41	0xbf4f92ba	-0.8108326
42	0xbf4a9192	-0.7912837
43	0x3e85d431	0.26138452
44	0x3e92651c	0.28592765
45	0x3df9fb12	0.12206091
46	0xbf8b9b8c	-1.0906844
47	0x3e5a131a	0.21296349

conv1.bias f4 [16]
0	0x3ddb86b2	0.107190505
1	0x3e62100b	0.22076432
2	0x3eae6f64	0.3406936
3	0xbe7d63f4	-0.2474516
4	0x3ed40925	0.41413227
5	0x3f820a0a	1.0159314
6	0xbe821073	-0.25403175
7	0x3e988ae2	0.2979346
8	0xbf1563d9	-0.5835548
9	0xbeb2dc8f	-0.34933898
10	0xbe7dd8ff	-0.24789809
11	0xbfe4e068	-1.7880983
12	0xbee56502	-0.44803625
13	0xbf70c827	-0.9405541
14	0xbf63d6c6	-0.88999593
15	0xbebe9441	-0.37222484

conv2.weight f4 [32, 16, 3]
0	0xbe883716	-0.26604527
1	0xbe237360	-0.15961981
2	0xbf4e5feb	-0.8061511
3	0xbead492b	-0.33844885
4	0xbe286146	-0.16443357
5	0xbe902770	-0.28155088
6	0x3dd18dba	0.1023211
7	0x3dd97151	0.106173165
8	0xbea77f06	-0.327141
9	0x3e4c4978	0.19949901
10	0x3e8ee422	0.27908427
11	0xbe5bf6d5	-0.21480878
12	0xbe100625	-0.14064844
13	0xbcfcbd79	-0.030852066
14	0xbeb098f6	-0.344917
15	0xbd9bc6d4	-0.07606283
16	0xbd9ef97c	-0.07762429
17	0xbe1fdd32	-0.15611723
18	0x3f1f4abd	0.62223417
19	0x3ca80608	0.020510688
20	0xbe12a4a5	-0.1432062
21	0xbd8b7e61	-0.06811214
22	0xbce92207	-0.028458608
23	0xbf446ff6	-0.7673334
24	0x3e736c8b	0.23771875
25	0xbc52b191	-0.012859718
26	0xbf1b858f	-0.6075067
27	0xbefb992c	-0.49140298
28	0x3ddf035a	0.10889311
29	0xbe4dc38d	-0.20094128
30	0x3e99017c	0.29883945
31	0xbcc9e37c	-0.024644606
32	0xbf0b7de4	-0.5448897
33	0xbeb8cd75	-0.3609425
34	0xbe26357b	-0.16231339
35	0x3ec1a763	0.37823018
36	0x3e18fd09	0.14940275
37	0x3e51ed05	0.20500572
38	0xbf0cdea9	-0.5502725
39	0x3e98c08e	0.29834408
40	0x3e07e429	0.1327063
41	0xbdd5c029	-0.10437042
42	0xbf2798a8	-0.6546731
43	0x3ef28163	0.4736434
44	0xbe9b696f	-0.30353877
45	0xbd9318aa	-0.07182439
46	0xbc62e14f	-0.013847663
47	0x3e0af167	0.1356865
48	0xbf06a46e	-0.5259465
49	0x3e175871	0.14779831
50	0xbe48bb10	-0.19602609
51	0xbeb3a9fc	-0.35090625
52	0x3dc74a29	0.09730942
53	0x3ca1aec1	0.01973665
54	0xbeeb4c4c	-0.45956647
55	0xbe32cdc1	-0.17461301
56	0xbdc349c7	-0.09535556
57	0x3efbedd0	0.49204874
58	0xbda89c89	-0.08232982
59	0xbdde8117	-0.10864466
60	0xbe8b77dd	-0.27239886
61	0xbd950c1e	-0.07277702
62	0xbdc6a636	-0.09699671
63	0xbe7a30ab	-0.24432628
64	0x3d2d46f6	0.042304
65	0xbde3c44d	-0.11121426
66	0xbe5dbe86	-0.2165471
67	0xbe266595	-0.16249688
68	0x3e3775bd	0.17916007
69	0xbe18d88b	-0.14926355
70	0x3d184632	0.03717632
71	0x3985d4e4	0.00025526353
72	0xbe85730a	-0.2606433
73	0x3d7fa111	0.062409464
74	0xbeab387c	-0.33441532
75	0xbdea57df	-0.11442541
76	0x3df04f9f	0.117339365
77	0xbe8ec2fe	-0.27883142
78	0x3f37b468	0.71759653
79	0xbdb7615a	-0.08954115
80	0xbd8965a2	-0.06708838
81	0xbf02d408	-0.51104784
82	0xbef80639	-0.48442248
83	0x3e91536a	0.28383952
84	0x3e2c9fff	0.16857909
85	0xbe66cc4f	-0.22538875
86	0xbeae02fc	-0.33986652
87	0xbe681438	-0.22663963
88	0xbd9b4dff	-0.07583236
89	0xbf6a891b	-0.91615456
90	0x3e133ecd	0.14379425
91	0xbea35ec0	-0.31908226
92	0xbe55ed10	-0.20891213
93	0xbd913e7a	-0.070919946
94	0xbe96cdb7	-0.29453823
95	0xbdf828c4	-0.121171504
96	0x3e17b28b	0.14814202
97	0xbe2bfbdb	-0.16795294
98	0x3cf79771	0.03022358
99	0xbeb230eb	-0.34802946
100	0xbe7ea75a	-0.24868527
101	0xbec0a308	-0.37624383
102	0x3dcbdbc4	0.09954026
103	0xbea2ec11	-0.3182073
104	0x3da189b1	0.07887591
105	0xbf49fa4f	-0.78897566
106	0x3e4fd3f4	0.20295697
107	0x3e07558d	0.13216229
108	0xbf195ad8	-0.5990424
109	0xbebb4728	-0.36577725
110	0xbf394af5	-0.7238
111	0xbf3c7a95	-0.73624545
112	0xbd0c2e19	-0.03422365
113	0xbea5ac0d	-0.32357827
114	0xbe8aafa7	-0.27087137
115	0xbec77afe	-0.38961023
116	0x3f05cb61	0.52263457
117	0x3d8905bb	0.06690546
118	0xbf410907	-0.754044
119	0x3c51c3ce	0.012803031
120	0xbdabefcb	-0.08395346
121	0x3e6aac20	0.22917223
122	0x3f360e45	0.71115524
123	0x3d8e69fa	0.06953807
124	0xbeab421b	-0.33448872
125	0x3e28688c	0.16446131
126	0xbf060820	-0.5235615
127	0xbc893911	-0.016750844
128	0x3d9f3895	0.07774464
129	0xbdf993a6	-0.12186365
130	0x3f342391	0.7036677
131	0x3d3210f8	0.043473214
132	0x3db50abd	0.08839939
133	0xbe569d15	-0.2095836
134	0x3ec39494	0.38199294
135	0x3dc2a318	0.09503764
136	0x3e8bec0a	0.2732852
137	0xbf999ccc	-1.2000976
138	0xbf5c28a3	-0.85999507
139	0x3c34f4b6	0.011044672
140	0xbdd2069b	-0.10255166
141	0xbef641ff	-0.48097226
142	0x3e1371c7	0.14398871
143	0x3cb2b401	0.021814348
144	0xbe7493f7	-0.23884569
145	0xbed59ccb	-0.41721186
146	0xbe40fb45	-0.18845852
147	0x3dca103f	0.0986638
148	0xbc5b6776	-0.013391366
149	0xbf2f408d	-0.6845787
150	0x3e575c1f	0.21031235
151	0x3e5da509	0.21644987
152	0xbe99a75d	-0.300105
153	0x3eecc271	0.46242097
154	0x3e1a1165	0.15045698
155	0xbe2de6aa	-0.16982523
156	0x3d9756d1	0.07389606
157	0x3d21abee	0.039470606
158	0xbe8f760e	-0.28019756
159	0xbd83b5a1	-0.06431127
160	0xbd6448a2	-0.05573333
161	0x3d751c61	0.059841517
162	0xbd8927da	-0.06697054
163	0x3caca70d	0.02107575
164	0xbcdaebb8	-0.026723728
165	0xbe791d53	-0.24327593
166	0xbf56bd74	-0.8388283
167	0xbec810ec	-0.3907541
168	0x3eb2403a	0.34814626
169	0xbebe711a	-0.37195665
170	0xbf64a90a	-0.89320433
171	0x3e979ca1	0.29611686
172	0xbe64bd2a	-0.22337785
173	0xbef86463	-0.4851409
174	0x3f3ce19b	0.73781747
175	0x3f0906a6	0.5352577
176	0xbe6b386e	-0.22970745
177	0xbef23e61	-0.47313216
178	0x3f4b6dac	0.7946422
179	0x3f6f9b27	0.9359612
180	0xbf3959e5	-0.72402793
181	0x3ecd5e2c	0.4011091
182	0xbf80f308	-1.0074167
183	0xbf1799ad	-0.59218866
184	0x3da1f58a	0.07908161
185	0x3e28f5f9	0.16500081
186	0xbf48d63b	-0.7845189
187	0x3dde0d50	0.10842383
188	0x3d5584ef	0.05212873
189	0xbed2c037	-0.41162273
190	0xbf35f67f	-0.7107925
191	0x3da13d89	0.07873065
192	0xbf19304c	-0.5983932
193	0xbe2188be	-0.15774819
194	0x3eaf4c4d	0.342379
195	0xbf5c7760	-0.8611965
196	0xbca7f5bf	-0.020502923
197	0xbe82689a	-0.2547043
198	0x3d61887d	0.055061806
199	0xbf0461d8	-0.517118
200	0x3e123632	0.14278486
201	0x3e170dca	0.14751354
202	0xbdba03e0	-0.0908277
203	0x3e938a5e	0.28816503
204	0xbf2b4ee6	-0.66917264
205	0xbe8134e9	-0.2523568
206	0xbefd2999	-0.494458
207	0xc0549f0a	-3.322207
208	0xbed20853	-0.41021976
209	0xbeac28ca	-0.3362487
210	0x3efc8a8b	0.4932445
211	0x3e4f27ed	0.20230074
212	0x3e38a863	0.18032984
213	0xbe3cdd4e	-0.18443796
214	0xbe150881	-0.14554025
215	0x3db8ae99	0.09017677
216	0x3f3fb9f9	0.74893147
217	0xbf245a7f	-0.64200586
218	0x3ddfc664	0.10926512
219	0xbf212b39	-0.6295658
220	0x3dd5a60a	0.1043206
221	0x3f4ae3bf	0.7925376
222	0x3edb35e0	0.4281454
223	0xbccfc969	-0.025364595
224	0x3e781c48	0.24229538
225	0xbc4164cc	-0.011803817
226	0xbde25187	-0.11050706
227	0xbf9c0232	-1.218817
228	0x3f446e58	0.7673087
229	0xbf8ab30f	-1.0835894
230	0xbd38b706	-0.04509642
231	0x3eb48bce	0.35262913
232	0x3fdf1b96	1.7430294
233	0x3ea9a97b	0.33137116
234	0x3f30aeeb	0.69016904
235	0xbdb7d1d2	-0.08975567
236	0x3f38cd8d	0.72188646
237	0x3d0da256	0.034578644
238	0x3f1c4c4d	0.61053926
239	0xbf84212f	-1.0322627
240	0xbecfb7a9	-0.4056981
241	0xbe20b892	-0.15695408
242	0xbe11619a	-0.14197388
243	0x3d26a6ad	0.0406863
244	0x3d9e5372	0.0773076
245	0x3cc249bc	0.0237168
246	0xbe8448a6	-0.25836676
247	0xbe485a8a	-0.19565788
248	0xbe79a718	-0.24380147
249	0x3e832062	0.25610644
250	0x3e8878b6	0.26654595
251	0xbea13c14	-0.31491148
252	0xbdbf768e	-0.093487844
253	0x3dbed09f	0.09317135
254	0x3d214b4f	0.03937846
255	0xbcc827f1	-0.024433108

conv2.bias f4 [32]
0	0xbe68a1e8	-0.22718012
1	0xba9a8afe	-0.001179069
2	0xbe88a96a	-0.26691753
3	0x3dfcd7ed	0.12345872
4	0xbf364e24	-0.71212983
5	0xbdf4cd6d	-0.11953244
6	0xbdfc3103	-0.12314036
7	0x3e3cc0fa	0.1843299
8	0x3d29ca0d	0.041452456
9	0xbe280b7b	-0.1641063
10	0xbdd1689c	-0.10225031
11	0x3e53854d	0.20656319
12	0xbf2a2057	-0.66455597
13	0xbdd4c7a0	-0.10389638
14	0x3d227d32	0.039670177
15	0x3dc22c04	0.094810516
16	0xbf551462	-0.83234227
17	0x3e2dd7e9	0.16976894
18	0x3e0cab17	0.1373714
19	0x3d8386a7	0.06422167
20	0x3d89f626	0.06736402
21	0x3b795cae	0.0038049626
22	0xbf00f3d4	-0.5037205
23	0x3eb9193e	0.3615207
24	0xbf576d2c	-0.8415096
25	0xbf5b049c	-0.8555391
26	0xbe3cfa72	-0.18454912
27	0xbd835f6a	-0.06414683
28	0xbe049e77	-0.12951075
29	0xbe94eb03	-0.2908555
30	0xbebfe9a9	-0.37482956
31	0xbf40dffb	-0.7534177

fc1.weight f4 [1, 6208]
0	0xbd61b6db	-0.055106025
1	0xbe174c8a	-0.14775291
2	0x3ec05fc1	0.37573054
3	0x3dbda5e7	0.09260159
4	0x3da8fc08	0.08251196
5	0x3d6c179a	0.057639696
6	0xbe3a59f7	-0.18198381
7	0xbe8220dd	-0.25415698
8	0xbe960b35	-0.29305425
9	0xbd2f3679	-0.04277656
10	0xbd433b9d	-0.047664274
11	0x3d44fb2f	0.04809111
12	0xbc36cca4	-0.011157189
13	0xbe1d3c13	-0.15354948
14	0xbd6449be	-0.05573439
15	0xbdbd5914	-0.09245506
16	0x3d1ae8c6	0.037819646
17	0xbca86767	-0.020557119
18	0xbe75203a	-0.23938075
19	0xbd98fc54	-0.07470003
20	0x3c85de6a	0.016341407
21	0x3e329936	0.17441258
22	0xbc9727a5	-0.018451521
23	0x3c58b02b	0.0132255955
24	0xbba4f316	-0.005033861
25	0xbd102940	-0.03519559
26	0xbd0c3b7f	-0.034236427
27	0xbde2975d	-0.110640265
28	0x3cd028e5	0.025410125
29	0x3d307639	0.043081496
30	0x3d530f82	0.05152846
31	0xbd9581dd	-0.0730016
32	0xbd5598cc	-0.05214767
33	0xbd2cf6e8	-0.042227656
34	0x3d8d41a5	0.06897286
35	0xbd0cc930	-0.034371555
36	0xbb9d3f9f	-0.004798844
37	0x3d47882d	0.04871385
38	0x3dc74b98	0.09731215
39	0x3d2bc2da	0.04193387
40	0xbcbeb583	-0.02327991
41	0xbbbceefb	-0.0057657934
42	0xbd065407	-0.03279498
43	0xbd8d20ed	-0.06891046
44	0xbcbb28b6	-0.02284656
45	0xbe2d22d2	-0.16907814
46	0x3d9a5490	0.0753566
47	0x3c9203fb	0.017824164
48	0x3d50bb87	0.05096009
49	0x3e43bc67	0.19114839
50	0x3dec1f0f	0.115293615
51	0xbb326df3	-0.002722618
52	0xbd74b4d7	-0.059742775
53	0xbd630bef	-0.055431303
54	0x3c587dbe	0.013213573
55	0x3b7bf5ef	0.0038446148
56	0xbcc68159	-0.0242316
57	0xbdaa5c28	-0.08318359
58	0x3de8b103	0.11361887
59	0x3d17c2fd	0.03705119
60	0x3daafbec	0.083488315
61	0xbc92039f	-0.017823992
62	0xbd050553	-0.03247578
63	0x3c1ae0cd	0.009453011
64	0x3dd87f52	0.105711594
65	0x3d202a2b	0.039102715
66	0x3d6800d1	0.056641404
67	0xbc6d0c66	-0.014468288
68	0xbcc24129	-0.023712711
69	0x3e02834a	0.12745395
70	0x3df06cf5	0.11739532
71	0xbbdc9888	-0.0067320503
72	0x3ccb1f5f	0.024795232
73	0x3e077b2d	0.13230582
74	0x3e426110	0.18982339
75	0x3c1476a5	0.00906149
76	0xbcfc2df1	-0.030783625
77	0x3e3b57fb	0.1829528
78	0x3e0ed95d	0.13950105
79	0xbd9137bc	-0.070907086
80	0xbd6e6d7b	-0.058209877
81	0x3d15d862	0.03658331
82	0xbd889de5	-0.06670741
83	0x3bc85dd9	0.006114703
84	0x396a408c	0.00022340025
85	0xbcba3061	-0.022728147
86	0xbb658ae7	-0.003502542
87	0x3e431a66	0.19053039
88	0xbd0db9f0	-0.034601152
89	0xbb51663f	-0.0031951813
90	0x3ddf55fe	0.109050736
91	0x3d79d489	0.060993705
92	0x3da8ab3b	0.082357846
93	0x3d042aab	0.032267254
94	0x3cf82c0b	0.030294439
95	0xbbe96835	-0.007123018
96	0x3db0ceb9	0.08633179
97	0x3d93ca88	0.07216364
98	0x3d9ee68e	0.077588186
99	0xbd90215c	-0.07037613
100	0xbd88bec4	-0.06677011
101	0x3e287576	0.16451058
102	0x3e144291	0.14478518
103	0xbcc6036a	-0.02417155
104	0xbd125dfb	-0.035734158
105	0xb978fae6	-0.0002374459
106	0x3d80bb00	0.062856674
107	0x3db7c31e	0.089727625
108	0xbc798f06	-0.015231853
109	0x3c09fa66	0.008421516
110	0x3d5c70e3	0.053818595
111	0x3d503f60	0.05084169
112	0x3d8de81e	0.069290385
113	0xbc728e15	-0.014804383
114	0xbd062a5e	-0.03275525
115	0x3d1515d6	0.036397777
116	0x3dbbc24e	0.0916792
117	0xbdad8e20	-0.08474374
118	0x3d17bd7d	0.037045944
119	0x3c2c869d	0.010530141
120	0xbbe948fd	-0.0071192966
121	0x3de8cfdc	0.11367771
122	0xbce75c2e	-0.028242197
123	0xbd570db0	-0.052503288
124	0xbd3ddae5	-0.046351332
125	0x3c2aecb7	0.010432414
126	0xbc0fa1ed	-0.008766633
127	0xbbc96f46	-0.006147298
128	0x3db840a8	0.08996707
129	0x3c8758b7	0.016521795
130	0xbd0a7924	-0.033806935
131	0x3db13ef2	0.08654584
132	0x3e647efa	0.22314063
133	0x3d4f3b67	0.05059376
134	0x3d9e98fc	0.07744023
135	0x3cca137c	0.024667494
136	0x3ca20436	0.019777399
137	0xbcce8de7	-0.025214149
138	0x3da2b845	0.07945303
139	0xbd24c210	-0.040224135
140	0xbdaa6c3d	-0.08321426
141	0xbd826e36	-0.06368677
142	0x3becae37	0.0072229165
143	0xbd923c07	-0.071403556
144	0x39ef5135	0.00045646136
145	0x3dc188e7	0.0944994
146	0xbe38a202	-0.18030551
147	0xbc85ac2b	-0.016317448
148	0xbd813e35	-0.06310693
149	0xbd5ed4ca	-0.05440215
150	0xbd88830c	-0.0666562
151	0xbc8ddad7	-0.017316265
152	0x3dfbd39f	0.12296223
153	0xbc738739	-0.014863783
154	0xbe1e61b7	-0.15466963
155	0xbd931f94	-0.071837574
156	0xbd815a63	-0.06316068
157	0xbd61c2a4	-0.055117264
158	0xb9272a59	-0.00015942137
159	0x3d114a87	0.035471465
160	0x3db9b649	0.09067971
161	0xbbae86d6	-0.0053261323
162	0xbcde3bc6	-0.027128112
163	0x3d0cd5bc	0.03438352
164	0xbe302cb8	-0.17204559
165	0xbc33c695	-0.010972639
166	0x3dc67cd0	0.09691775
167	0x3dc60f32	0.09670867
168	0xbd857475	-0.06516353
169	0xbdda599d	-0.106616236
170	0xbc8d9cbc	-0.01728665
171	0xbdfb7a24	-0.12279156
172	0x3d27c90a	0.04096321
173	0x3d8a6c06	0.06758885
174	0x3de3c70d	0.1112195
175	0x3d0b320f	0.033983286
176	0x3b8fd005	0.0043888115
177	0x3cc43d98	0.023955151
178	0x3dfa830d	0.12232027
179	0x3e1af70a	0.151333
180	0x3b1fc581	0.0024379196
181	0x3d94e536	0.07270281
182	0x3e05d9e8	0.13071406
183	0xbd6139ff	-0.05498695
184	0x3c946106	0.01811267
185	0x3e23bd6e	0.1599023
186	0x3c5bfa29	0.013426342
187	0x3cbbb126	0.02291162
188	0x3cb51373	0.022104
189	0xbbc7b89b	-0.0060950047
190	0x3d4797c8	0.048728734
191	0x3c51f5bd	0.012814936
192	0xbc4df3ef	-0.012570365
193	0x3dd62949	0.10457093
194	0xbe05d5dd	-0.13069864
195	0x3e25d039	0.16192712
196	0x3d366f4a	0.044539727
197	0xbb85b914	-0.004080901
198	0xbea4cdbc	-0.32188213
199	0xbeaee89f	-0.3416185
200	0xbcad7f43	-0.021178847
201	0x3d6aad0b	0.057293933
202	0x3c33c677	0.010972611
203	0xbd95f6e8	-0.07322484
204	0xbceeb6bb	-0.029139867
205	0xbdbecdc0	-0.093165874
206	0xbdba9c03	-0.09111788
207	0xbdf8dab2	-0.12151088
208	0x3c5b7739	0.013395124
209	0xbda224fc	-0.079172105
210	0xbecb9eb5	-0.3976952
211	0x3d8fe277	0.070256166
212	0xbe2b746c	-0.1674363
213	0x3dd14d91	0.10219873
214	0x3da29469	0.07938463
215	0xbd124a42	-0.03571535
216	0xbdc4dee5	-0.09612826
217	0xbddbe32a	-0.107366875
218	0xbc7d7236	-0.015469125
219	0xbe192fc7	-0.14959632
220	0xbe024c5a	-0.12724438
221	0x3dcf23d4	0.101142555
222	0x3c0f9aa6	0.008764898
223	0x3d2bb0c5	0.041916627
224	0xbddeeb06	-0.10884671
225	0x3dfeeba2	0.12447287
226	0x3ca2a882	0.019855741
227	0xbd452895	-0.048134405
228	0x3d7a107e	0.061050884
229	0xbe4014ad	-0.18757887
230	0x3e5f11b9	0.21784104
231	0xbd9c28e7	-0.07624989
232	0x3e0497b8	0.12948501
233	0xbd5d4fdd	-0.05403124
234	0xbd31cd79	-0.043408845
235	0xbd0d1adb	-0.03444944
236	0xbdc3ed67	-0.09566765
237	0xbcb303a5	-0.021852324
238	0x3e3750d7	0.17901932
239	0x3cbb06b9	0.022830354
240	0xbd7b4be9	-0.06135169
241	0xbd362a22	-0.044473775
242	0x3ec63ef5	0.38719907
243	0x3d023254	0.031786278
244	0x3d4a59c7	0.049402025
245	0xbd51d867	-0.051231768
246	0x3e60ccbf	0.21953104
247	0x3d40e49f	0.04709303
248	0xbcf3b44a	-0.029749054
249	0xbdae7231	-0.08517874
250	0xbd935fbb	-0.071959935
251	0xbd9d2741	-0.07673503
252	0x3e1d595a	0.15366116
253	0x3d682882	0.056679256
254	0xbcccf977	-0.025021298
255	0xbbd2c5cb	-0.00643227
