notebooks/DL_saved_models/LSTM_Credit.pt (torch, 36528 bytes, 5 tensors)

lstm.weight_ih_l0 f4 [128, 32]
000000 e1 b3 52 bf bb 40 df 3d 46 ee 86 bf c4 56 a2 3e
       -0.82305723 0.10901018 -1.0541465 0.31706822
000010 06 b1 a0 3f 48 cb 7c 3f 6b 65 c7 3e 0d 29 14 bf
       1.2554023 0.9874768 0.38944563 -0.5787514
000020 d5 65 16 3e 9c 44 5b 3f 0a 0a 2c 3f 68 0d 23 bf
       0.14687283 0.85651565 0.6720282 -0.6369233
000030 d7 a4 2a 3e 24 66 5f be 70 1d a4 3e ab c8 e9 bd
       0.16664444 -0.21816307 0.3205371 -0.114152275
000040 f0 3d 1f be ea 46 6c 3d 9c 25 e5 be 3c d1 a0 3e
       -0.15550971 0.057684816 -0.44755256 0.31409633
000050 6e 84 8c bf 91 21 8f 3f 83 7f 61 bf cc c1 9a bf
       -1.0977914 1.1182119 -0.8808519 -1.2090392
000060 b5 4c 99 3f 77 a8 82 be 54 a1 48 bf 1f 52 23 bf
       1.1976534 -0.25519153 -0.7837117 -0.6379718
000070 26 07 4d 3e 7a b5 04 bf 19 8b 2a bf 61 b4 d7 be
       0.20022258 -0.5183941 -0.66618496 -0.42129806
000080 70 2e 54 bf bc 46 4e 3f c4 8c f7 3e 93 04 13 40
       -0.8288336 0.8057668 0.48349583 2.2971542
000090 a6 74 29 bf f1 82 1b bf c2 ba c6 3f 50 0a 4f 3f
       -0.66193616 -0.60746676 1.5525744 0.8087511
0000a0 d1 97 39 3f b6 fc ea bc 03 de 20 3f 9d 86 c1 bf
       0.7249728 -0.028684955 0.62838763 -1.5119206
0000b0 6b e7 a9 3f 95 ab fa 3e b8 a2 46 3f 2b fc 88 3f
       1.3273748 0.48959032 0.7759204 1.0701956
0000c0 bf 6b 0e 3f a3 59 52 3f 9b fe 00 3f e9 c1 6f bf
       0.5563316 0.82168025 0.503885 -0.9365526
0000d0 4e 4c 51 3f 29 1e c4 be 5d 35 fe be 4e 1e 00 3f
       0.81757057 -0.3830426 -0.49650088 0.5004624
0000e0 56 25 35 3f a8 eb 55 3f a4 19 15 bf dd b6 62 be
       0.70760095 0.8356271 -0.5824225 -0.2214007
0000f0 4b 0a dc bf 66 37 d2 be 97 2b 6a bf 3c d2 65 be
       -1.7190641 -0.4105789 -0.9147276 -0.2244348
000100 1a 01 e2 be 7a 72 0e 3d f0 f6 35 bf ef 77 be 3c
       -0.44141465 0.034777142 -0.7107992 0.023250548
000110 c5 e1 8f bd 93 28 e3 3e fe 53 14 bf d5 4d 80 3e
       -0.07025484 0.44366893 -0.5794066 0.2505938
000120 8e 38 dc 3f e5 54 ce 3f 9d a1 0f 3f f5 78 1b bf
       1.7204759 1.6119658 0.5610598 -0.6073144
000130 3a f6 48 3d 75 8a 95 3f 6b 39 17 3f a8 27 d4 bf
       0.049062945 1.1682879 0.5907199 -1.6574602
000140 a0 d9 63 3e 8c 45 0a 3f aa fa 53 3e 43 46 92 bf
       0.22250986 0.5401237 0.2070109 -1.1427692
000150 7e 8d 00 c0 24 74 f8 3f 82 9f 58 bf 55 6f 12 40
       -2.008636 1.9410443 -0.8461839 2.2880452
000160 bf 08 38 3f c3 92 a1 bf 13 65 35 3f b8 ab 96 3d
       0.71888345 -1.2622913 0.7085735 0.073569715
000170 3e 5d 5e bf ba 09 00 bf 46 06 9f be 84 68 13 bf
       -0.86861026 -0.5001484 -0.31059474 -0.57581353
000180 f9 d1 93 be bc 35 d2 bf 6c 98 92 3e 67 83 cd 3d
       -0.28871134 -1.6422648 0.28631914 0.10034829
000190 56 f7 d8 bf 03 fb 25 3f 20 35 16 bf 2b c9 af 3e
       -1.6950481 0.6483614 -0.5867481 0.34333166
0001a0 43 22 1b 3f ab 29 cf 3f e0 45 25 be f6 1c 7a 3f
       0.60599154 1.6184591 -0.16139936 0.9770044
0001b0 11 be 17 3f f1 cc 03 3d 79 34 1c 3f 41 84 16 bf
       0.59274393 0.03217787 0.61017567 -0.58795553
0001c0 f1 7b 0e 3f 35 7a f9 3f 4b 6c d2 3f 9d 9a 17 c0
       0.5565787 1.949042 1.6439298 -2.3688118
0001d0 97 99 e6 be 9a bc 4c 3f 13 96 fd bf dd 62 bf 3e
       -0.45039055 0.79975283 -1.9811424 0.37380114
0001e0 f8 12 a3 3f 47 b5 04 3f b8 8c 8c bf ec 79 eb be
       1.2740164 0.5183911 -1.0980444 -0.45991457
0001f0 1a 02 9b be 76 6d 25 3e 14 d4 98 be 63 c4 0e 3e
       -0.3027504 0.16155037 -0.29849303 0.13942103
000200 62 c3 4d bf 1d 6f 68 be 45 f4 3e 3e 43 b3 1b be
       -0.80376256 -0.22698636 0.18647869 -0.15205102
000210 07 9d 08 bf 27 ce 66 bf 7b 2e 12 3f 32 58 b0 be
       -0.53364605 -0.90158314 0.57102174 -0.34442288
000220 2c e1 46 3f 37 5b 59 3f c5 68 84 be 54 99 83 bf
       0.77687335 0.8490481 -0.25861183 -1.0281167
000230 b0 f9 5a 3f 3c 56 a3 3f 3d dc 38 3f c7 09 a4 bf
       0.8553724 1.2760692 0.72211057 -1.2815484
000240 28 87 2d 3f 55 2c 2f 3f 1c 19 47 3f f1 bf 52 c0
       0.6778436 0.6842702 0.7777269 -3.2929652
000250 fa eb ce 3f 16 ec 70 bf 29 63 4f 3f 05 7f c5 bf
       1.6165764 -0.9411024 0.8101068 -1.5429388
000260 56 4f 4f bf e9 e1 d6 3f 0b 3c c2 bd 0a 4a 0d bf
       -0.8098043 1.6787692 -0.094841085 -0.551911
000270 28 32 8e 3e 34 e8 8d 3e 2e e8 4b bf 2c 3c 89 3e
       0.2777264 0.2771622 -0.79651153 0.2680372
000280 2b be 7a bf fb 35 9c be 17 ce 7f 3d 62 1e 86 be
       -0.97946423 -0.30509934 0.062452402 -0.26195055
000290 b8 b3 a4 bf 1e ef 13 3d e3 28 0c c0 d9 fc 6c 3e
       -1.2867346 0.03611671 -2.1899955 0.23143329
0002a0 78 32 10 3f 85 97 01 40 47 a0 e4 be 6d 14 8b 3e
       0.5632701 2.024873 -0.44653532 0.2716402
0002b0 65 c8 8e 3e 20 dd 61 bf 53 3a a2 3e 7f 56 ea b7
       0.27887264 -0.88228035 0.31685123 -2.7935252e-05
0002c0 20 fd c4 bf 53 f0 ef 3d 5e 1e 7a 3e 09 49 81 3f
       -1.5389748 0.1171576 0.24425647 1.0100414
0002d0 db 36 88 bf fd 97 0d 3d a7 3e 7b 3f 29 24 35 bd
       -1.064174 0.034568775 0.98142475 -0.044223938
0002e0 60 62 86 bf fc c0 11 bf da b5 e8 bf 7e 95 4c c0
       -1.0498772 -0.56935096 -1.8180497 -3.1966243
0002f0 f7 50 f1 bf 7b 10 c9 be aa c0 7d bf f7 16 c3 be
       -1.8852834 -0.39270386 -0.9912211 -0.38103458
000300 4c 45 ca bd a5 a4 02 3f cc 85 0c c0 ff 9c 1d 3f
       -0.098764986 0.5103248 -2.1956663 0.6156768
000310 30 82 c5 3f 20 df 94 3f 20 7b 02 3f 12 ef 56 bf
       1.5430355 1.1630592 0.50969124 -0.8395854
000320 8f c6 9e 3e f1 cf 8d bd 2e 39 57 3f f0 1e a7 3f
       0.31010863 -0.06924427 0.84071624 1.3056316
000330 2b 01 3b bf a6 b5 9e bf 51 94 2d 3f 4b f8 b3 bf
       -0.7304866 -1.2399185 0.6780444 -1.4060148
000340 41 d6 c3 bd 98 3b 18 3f 44 6f ce be c1 e7 03 be
       -0.0956235 0.5946593 -0.40319264 -0.12881376
000350 8d 4e 07 bf 9d 6a 3e 3f b3 7a 99 3e cd 9f a3 bf
       -0.52854234 0.7438143 0.29976425 -1.2783142
000360 67 94 ba 3e e8 21 da 3f cf c9 29 3f a9 68 80 bf
       0.36441347 1.7041597 0.6632356 -1.003194
000370 97 65 81 3f 8a f4 a2 bd 0b dc 3a be c7 50 36 bb
       1.0109128 -0.079567984 -0.18248002 -0.0027819143
000380 99 12 6a 3e 21 1c d5 3e ef 4f 04 bf 4c 0d 49 bf
       0.22858657 0.41623023 -0.5168447 -0.78535914
000390 54 cf 9c bb f4 97 ce 3f 7f 93 a4 3e f9 18 77 3e
       -0.0047854576 1.6140122 0.3214378 0.2413062
0003a0 c5 cd ee bd a5 14 03 3f f8 db 53 3f 70 02 27 3e
       -0.11660341 0.51203376 0.8275752 0.16309524
0003b0 91 5d 87 bd c2 e6 a9 3f f4 91 89 3f 4c 88 ea be
       -0.06609643 1.3273547 1.0747666 -0.4580711
0003c0 24 3a 7e be b1 c7 ff 3e ed 87 96 3e db 60 5f 3f
       -0.24826866 0.4995704 0.29400578 0.87257165
0003d0 59 5a 07 bd 8a 8f 65 3f 61 fd 11 bf de 7d 38 c0
       -0.033045147 0.8967215 -0.5702725 -2.8826823
0003e0 ad 1e cb be bc 2a 8f bc b9 1e fb be ed 6f d3 bf
       -0.3967184 -0.017476432 -0.49046877 -1.6518532
0003f0 ff 27 ba bf 1b df 20 be 24 3a e8 3e 18 f1 32 bd
       -1.4543456 -0.15710108 0.45356858 -0.043686956

lstm.weight_hh_l0 f4 [128, 32]
000000 94 09 1a be 1e 6d 2f be 3a 57 6a bd 5a ef c2 3a
       -0.15042716 -0.17131469 -0.057212092 0.0014872358
000010 f7 e6 cd bd 69 41 31 3e 04 3d 4d bd 48 65 0d 3d
       -0.10053819 0.17310108 -0.050107017 0.034520417
000020 ab ee 00 3e c0 ef 83 3d 85 27 ff 3b 7c 01 0e 3e
       0.12591045 0.06442213 0.0077866935 0.13867754
000030 fb 46 0b 3e 1f bb 20 3e 88 34 20 be 44 07 2d bd
       0.13601296 0.15696381 -0.15645039 -0.042243257
000040 d5 93 e5 bd fe 51 ce bd 20 ca 9f 3a 7c c4 d5 3d
       -0.11209837 -0.100742325 0.0012190975 0.10437867
000050 fd 0e 6a 3d 9c c3 bc bd d1 f0 d6 bd a6 39 09 be
       0.0571432 -0.09216997 -0.10495151 -0.13400897
000060 f9 6d 03 bd d1 f1 f9 3d 49 d2 b7 3d ee 22 71 3d
       -0.0320873 0.12204326 0.089756556 0.058871202
000070 8e 27 28 bd 8b c6 ac bc 13 2f 4d bd 54 c9 d6 3b
       -0.041053347 -0.021090766 -0.05009372 0.006554762
000080 34 63 b5 bd d7 d7 68 3d 36 3f 9d 3d 00 99 e3 3d
       -0.08856812 0.056846466 0.07678072 0.11113167
000090 15 a5 be 3c 4d 62 f4 3d 10 cc ea bd 8d 4b 14 be
       0.023272077 0.11932812 -0.11464703 -0.14481945
0000a0 a9 85 8c 3d f9 4e 9a bd eb ec a1 3d b7 0e 1f be
       0.06861431 -0.07534594 0.07906517 -0.15532957
0000b0 dd d6 95 3d 2f 9c 24 bd 02 3f 59 bc 73 a8 9b 3d
       0.073163725 -0.04018801 -0.013259651 0.076004885
0000c0 8c a2 2c bd e7 14 04 3e a2 98 2f 3d d1 72 89 bd
       -0.042147204 0.12898599 0.04287017 -0.067113526
0000d0 9d ad 0f 3e bb bd 1f be ad 9e 15 3e 65 44 e0 3d
       0.14031072 -0.1559972 0.14611311 0.10950545
0000e0 6b fd ff 3c ba c9 14 3e ce 0a 74 bd ec 94 d9 3c
       0.031248769 0.14530078 -0.059580617 0.02656027
0000f0 04 04 2f 3e a9 83 cd 3d 0d 76 26 be c6 45 d8 3d
       0.17091376 0.10034878 -0.1625597 0.10560183
000100 a3 87 34 be ff cb 2d bd 99 f0 9b 3c ef c4 da bd
       -0.17629866 -0.042430874 0.019035624 -0.10682093
000110 34 df a8 bd 22 5c 34 be 51 aa 32 bc 81 a0 f6 3d
       -0.082456976 -0.17613271 -0.010904864 0.120423324
000120 44 22 eb bd 5b 82 9b 3d fa d6 e4 3d 07 2d c5 bd
       -0.11481145 0.07593223 0.11173816 -0.09627729
000130 85 d6 2c 3e cd 8c 42 3d ea 96 f6 3d 19 13 81 3d
       0.16878708 0.04749756 0.12040503 0.06302471
000140 14 10 f6 3b 0d bb ce 3c 09 0f 16 3e 0f ca bd 3d
       0.007509241 0.025235677 0.14654173 0.09267055
000150 2f 8f dc 3d 45 94 f0 bd 64 d5 1a be b9 97 de 3d
       0.107694976 -0.1174703 -0.15120465 0.108687826
000160 26 23 fa 3d b7 43 0d bd 90 9a dc bd 49 58 ea bd
       0.12213735 -0.034488406 -0.10771668 -0.1144262
000170 f9 6c 3b bd 2d 27 33 3e e2 79 3e bd 8b 4e a4 3d
       -0.04575822 0.17495413 -0.046502955 0.080227934
000180 14 63 b2 ba f4 04 45 bd be 59 0e be 20 56 54 3b
       -0.001360985 -0.048100427 -0.13901421 0.0032399967
000190 a4 a3 e9 3c 99 a7 fa bd c6 2e 32 3e 6e 0b 01 3e
       0.028520413 -0.12238998 0.17400655 0.12602016
0001a0 ad d6 d2 bd 9a 7a cd bc e7 fb cd bd 1c fd 6e 3d
       -0.102948524 -0.025082875 -0.10057812 0.058346853
0001b0 a1 13 f7 3c 28 57 1f bd 64 3e 0f be 4a 80 f3 bd
       0.030160727 -0.038901478 -0.13988644 -0.118897036
0001c0 ae d9 14 3e 6e b7 97 bd d2 fb 28 3c ff a7 aa bd
       0.14536163 -0.07408033 0.010313945 -0.08332824
0001d0 5c 3e 00 be 59 b4 82 bd eb b7 32 be 05 32 95 bc
       -0.12523788 -0.06382055 -0.17452972 -0.018212328
0001e0 01 f4 2e 3e 51 66 ff 3d c6 e1 ee bc 81 7b 17 3d
       0.17085268 0.12470687 -0.029160392 0.036983017
0001f0 6f a4 1a bb f2 73 67 bd 18 16 17 be 9b fc da bd
       -0.0023596545 -0.05650706 -0.14754522 -0.10692712
000200 34 98 c6 bd 32 6d aa 3c bb b7 88 3d 98 24 a6 bd
       -0.09696999 0.020804022 0.06675669 -0.081124485
000210 38 c4 bc 3d fd f5 97 3d 31 26 00 be 03 eb 83 bd
       0.09217113 0.074199654 -0.12514569 -0.06441309
000220 e4 1d dc 3d bf fe 33 be a9 8e fc bd 10 c8 cb bd
       0.10747889 -0.17577647 -0.12331898 -0.09950268
000230 80 36 98 bd 56 8a 87 3d d1 ae 01 3d a9 6f 06 3d
       -0.0743227 0.06618182 0.03166086 0.03282133
000240 89 ac 99 3d 1c 81 85 3d 74 d2 82 bd fa 60 03 3e
       0.075036116 0.06518766 -0.06387797 0.12829962
000250 ed 57 df 3d c9 ba 33 3e 3c d7 8d 3d 6c 48 a4 bd
       0.109054424 0.17551722 0.06925818 -0.08021626
000260 f5 4f ff bc 87 d6 87 bd 42 28 08 3e 81 9d ab 3d
       -0.031166056 -0.06632715 0.13296607 0.08379651
000270 a3 90 23 be 82 b9 bb bd 99 10 03 be 48 19 84 3d
       -0.15973143 -0.09166242 -0.127993 0.064501345
000280 03 87 04 3e f6 d3 0e 3e db 10 03 bd 0c 14 92 3c
       0.12942128 0.13948044 -0.031998497 0.017831825
000290 25 2d b9 bd a6 b6 43 3d cd b2 82 bd 67 55 e8 bb
       -0.09041814 0.04778161 -0.0638176 -0.007090259
0002a0 4e 09 1b be 77 19 a2 3d 8c e2 59 bd f6 69 dc bd
       -0.15140268 0.07915013 -0.053194568 -0.10762398
0002b0 ff fa 36 3b 17 3b 86 bc e2 d2 59 bc 4b 33 00 3e
       0.0027920601 -0.016385598 -0.013294907 0.12519567
0002c0 50 e2 1e be 40 59 23 be 22 65 64 bd 90 26 9f bc
       -0.15516019 -0.15952015 -0.05576051 -0.019427568
0002d0 e0 2a 02 be c8 0b 1c be ba 6a 83 3b 00 3a a5 3d
       -0.12711668 -0.15238869 0.0040105255 0.08067703
0002e0 27 e3 32 3d 65 29 23 3e 53 37 f3 3d 2d d6 30 be
       0.04367366 0.1593376 0.11875787 -0.17269202
0002f0 f3 9a 38 3d fa 20 02 3e fe 33 f9 3d ac cc 9e bd
       0.045069646 0.12707892 0.1216812 -0.07753882
000300 97 0d a4 bd 9f 76 a1 bd f1 79 05 3e 05 a8 2c 3e
       -0.080104046 -0.07883953 0.13034798 0.1686097
000310 13 53 b9 3d 30 71 24 3e 41 b1 2c 3e 8e 6c c7 3d
       0.09049048 0.16058803 0.16864492 0.09737502
000320 2e 4f 49 bd cc 9a 2a 3e 68 4d 80 bd 71 47 c3 bd
       -0.049147777 0.16660613 -0.06264764 -0.09535111
000330 31 3b f3 bd 53 de 0a bd 21 ce 38 3c 54 d2 ab 3c
       -0.11876524 -0.03390343 0.011279614 0.020974316
000340 a4 3f 78 3d 21 77 56 3d 73 aa 1d 3e bd 32 73 3d
       0.060607567 0.052359704 0.15397052 0.05937456
000350 92 d4 6c 3c 47 07 12 3e 09 98 d1 3d 23 bf 3a 3d
       0.014454978 0.14260589 0.102340765 0.04559244
000360 38 bc 85 3d a0 ac c1 bd 3e 67 d6 bd 06 b1 f3 3c
       0.065300405 -0.09456754 -0.10468911 0.029747497
000370 a3 bd 09 3e 4d fd d8 bd 25 a3 26 be 4e 76 ea 3d
       0.13451247 -0.10595188 -0.16273172 0.11448346
000380 17 5a 78 3d 00 02 dd 3d 81 ea b3 bd 66 a8 e8 3d
       0.06063279 0.10791397 -0.087849624 0.113602445
000390 29 0d 0d bd e4 41 03 3d 53 94 2f 3e b0 28 e6 bc
       -0.03443638 0.03204526 0.17146425 -0.028095573
0003a0 3a d7 93 3c 53 7b 67 bd a4 60 0a 3e 05 7e 9c bd
       0.018046964 -0.056514096 0.13513428 -0.07641224
0003b0 59 76 68 3d 31 6c fc bb 6b 45 f4 3d dd 7b 1e bd
       0.05675349 -0.007703327 0.11927303 -0.038692344
0003c0 18 7f ef bd 67 7a ff 3d 17 13 57 bd 7e ff 0e bd
       -0.11694163 0.12474518 -0.05250844 -0.034911625
0003d0 fe 6a ad b8 fa ab d1 3d 41 5c ee 3d ba 99 db 3c
       -8.269212e-05 0.1023788 0.1163869 0.026806701
0003e0 64 69 9c bd d4 43 26 bd 26 80 e6 3d 06 64 8f bd
       -0.07637289 -0.04059203 0.11254911 -0.070015
0003f0 03 e9 14 3c 7c f7 1b be de c3 ec 3d 1b 5f 87 bd
       0.009088757 -0.15231127 0.11560796 -0.06609937

lstm.bias_ih_l0 f4 [128]
000000 0c f3 8b 3f 33 bb 95 bd 47 60 8b 3f ab 31 20 3f
       1.0933547 -0.07311096 1.0888757 0.6257579
000010 99 fb 49 3f 06 90 ca 3e 2e bc 2a 3f dc 45 f9 3e
       0.7889953 0.39563006 0.6669339 0.4868611
000020 6b ff 10 3f 2b db 85 3f aa 02 3d 3e 55 aa b6 3e
       0.56639737 1.045751 0.18458048 0.35676828
000030 8f 3c d6 3f 43 bd 36 3f 73 ed bc 3f 7c d9 65 3e
       1.6737231 0.7138254 1.4759964 0.22446245
000040 a7 0c 4b 3f ad fb 42 3f e9 01 2c 3f 74 93 b1 3f
       0.7931618 0.76165277 0.67190415 1.3873124
000050 2c 59 89 3f dc d9 f3 3e 8d 4e 24 3f f0 c8 89 3f
       1.0730338 0.4762715 0.6418236 1.0764446
000060 bd 77 84 3f 5f b4 e0 3e bd c2 61 3f c8 56 45 3f
       1.0349041 0.43887612 0.8818777 0.7708554
000070 80 8e 2e 3f bd cb dc 3f c5 01 10 3f ee d7 7a 3f
       0.6818619 1.7249676 0.562527 0.9798573
000080 d5 bd 11 3e 80 4f 22 be 29 ab ad 3d 3b 15 dc 3d
       0.14232571 -0.1585064 0.08479912 0.10746237
000090 8b d5 ea 3d 30 bb 31 be 47 4c 31 3e 2a 18 0b 3e
       0.11466511 -0.17356563 0.17314254 0.13583437
0000a0 b7 3c d8 3d d3 c4 21 be c8 7e ff 3d f5 c5 cc bd
       0.105584554 -0.15797739 0.124753535 -0.09998695
0000b0 3d 72 ea 3d c9 79 9e bd 3a 68 13 be f7 41 a7 bd
       0.114475705 -0.077380724 -0.14395228 -0.08166879
0000c0 5f f2 a2 bd 84 65 aa 3d 22 11 1a 3e c4 2b 3f bd
       -0.07956385 0.08320144 0.15045598 -0.046672598
0000d0 9a 77 27 be 8c 32 30 3e eb 33 28 be 58 37 15 3d
       -0.16354218 0.17206782 -0.16426055 0.036429733
0000e0 f2 87 1b 3d 68 cd 5c 3c 72 99 dc 3d 25 fa de bd
       0.037971444 0.013476707 0.10771455 -0.10887555
0000f0 01 40 b1 3d f5 2d 03 3e 4c 22 93 bc 91 6c aa 3d
       0.08654786 0.128105 -0.01796069 0.08321489
000100 05 da 0e bf 2f d1 37 be c5 30 46 3f 38 d6 87 3e
       -0.5580142 -0.17950891 0.77418166 0.26530623
000110 e5 97 3c bf fe 05 39 bf 21 f2 21 bf db 88 54 3e
       -0.7366927 -0.7227477 -0.63260084 0.20755331
000120 15 38 6e 3f 26 d1 56 3f 90 c5 f3 3e bc cf 64 3f
       0.93054324 0.83912885 0.47611666 0.8937948
000130 dd 71 48 bf fe a5 85 3f b9 5b 8a 3f c5 62 6e 3f
       -0.7829874 1.0441282 1.0809242 0.9311946
000140 12 95 5f bf be 4f c8 3e 18 d8 1d bf 99 3a 39 bf
       -0.8733684 0.39123338 -0.6165786 -0.7235504
000150 65 7a 1e bf ba 87 01 bf e5 28 9b bf 35 fd 6b 3f
       -0.6190551 -0.5059773 -1.2121855 0.9218324
000160 e4 b3 98 bf 42 34 55 3f e3 e2 6c bf 25 a2 20 bf
       -1.1929898 0.83282864 -0.925337 -0.6274741
000170 3b 2d 60 3f 9c ff 10 bf f1 ab db be 22 a7 24 3f
       0.87569016 -0.5664003 -0.42904618 0.64317524
000180 4c 58 66 3f e6 ca 8b 3f ef 15 61 3f 0d f2 28 3f
       0.8997848 1.0921295 0.87924093 0.6599434
000190 d0 7a a9 3f 73 dd 7e 3f fd 69 1e 3f e3 6e 3f 3d
       1.3240604 0.99556655 0.61880475 0.04673661
0001a0 a4 e7 9f 3f fc 6f 2c 3f 6d 75 24 3e 15 84 02 be
       1.2492566 0.67358375 0.1606042 -0.12745698
0001b0 3c 0a 84 3f 19 6d 88 3f e5 51 83 3f 37 50 a3 3d
       1.0315623 1.0658294 1.0259367 0.07974284
0001c0 6e 57 4f 3f 14 dd cf 3f 6f 25 6c 3f 34 27 7d 3f
       0.8099278 1.6239343 0.9224462 0.98887944
0001d0 98 b2 7e 3f 1d 26 35 3f 8d 5e 82 3f b7 55 96 3f
       0.9949126 0.7076128 1.0185105 1.1744908
0001e0 7c e8 69 3f 0f 83 80 3f c1 7e 55 3f 0c 58 14 3f
       0.9137037 1.0039996 0.83396536 0.5794685
0001f0 f7 0d c3 3e 0c 0b a4 3f 9c ee 0e 3f 52 f3 83 be
       0.38096592 1.2815871 0.5583284 -0.25771576

lstm.bias_hh_l0 f4 [128]
000000 a7 d6 87 3f a8 75 ff 3d c1 a7 93 3f d5 68 1e 3f
       1.0612382 0.12473613 1.153557 0.6187871
000010 53 9a 56 3f ce 30 c6 3e 54 a1 0c 3f 3d bb ba 3e
       0.8382923 0.3870911 0.5493367 0.36470976
000020 09 f9 30 3f 67 94 8f 3f bb 50 b9 3e e6 c8 5d 3e
       0.6913 1.1217164 0.36194405 0.21658668
000030 47 23 d8 3f a7 a4 0c 3f d5 5f ac 3f bb 89 ce 3e
       1.6885766 0.5493874 1.3466746 0.40339455
000040 ef 8f 59 3f 5b a6 6f 3f c1 a4 41 3f aa e1 ba 3f
       0.8498525 0.93613213 0.7564202 1.4600117
000050 57 44 86 3f c0 2b d6 3e 57 42 2f 3f 80 31 97 3f
       1.0489606 0.41830254 0.684606 1.1811981
000060 fd 5e 87 3f 7c 13 26 3f 03 fc 38 3f a8 f1 0a 3f
       1.0575863 0.6487348 0.7225954 0.5427499
000070 d2 70 66 3f d1 42 cf 3f 6d 54 25 3f 77 8d 8e 3f
       0.900159 1.6192266 0.6458195 1.1136922
000080 7d b9 30 be 97 f5 2a 3e 57 24 aa 3d 55 72 eb bd
       -0.17258258 0.16695248 0.083077125 -0.114964165
000090 22 bd dc bd 01 54 bd 3d 8e bb 21 3d 46 8a 84 bd
       -0.10778262 0.09244538 0.039485507 -0.06471686
0000a0 9a c7 f0 3c 85 4b 26 be 6c 22 8a bd d1 86 01 be
       0.029392052 -0.16239746 -0.06744847 -0.12649085
0000b0 08 ba 01 be 9b 9b 29 3e 1f 9a cd 3d cd f4 c8 bd
       -0.12668622 0.16563265 0.10039162 -0.09812317
0000c0 fb 93 e6 3d 49 ac 4b 3d 5b ac 53 bd c1 69 08 be
       0.11258694 0.04972485 -0.051678043 -0.13321592
0000d0 55 f4 41 bc 25 ce bf bd 9c 57 b6 3d 5b 57 8a bd
       -0.011838038 -0.09365491 0.08903429 -0.06754943
0000e0 b1 8b 2e bd 1b 63 13 3e 7d 3c 2d be a7 83 20 bc
       -0.04261369 0.14393274 -0.16917606 -0.009797013
0000f0 60 75 dc 3d f4 68 9d 3d bf 72 14 bc 20 8f 06 3e
       0.10764575 0.07686034 -0.009060561 0.13140535
000100 89 32 1d bf 15 eb 90 3b fd 91 23 3f a5 80 5e 3e
       -0.61405236 0.004422555 0.63894635 0.21728761
000110 e3 a2 0d bf 64 7a 76 bf 29 53 bd be 15 de 75 3e
       -0.5532667 -0.96280503 -0.3697751 0.24010499
000120 ce 89 74 3f c4 30 5c 3f f9 9a fb 3e 3a f8 5e 3f
       0.95522773 0.8601191 0.49141672 0.87097514
000130 63 3c 7f bf fd 2e 9a 3f 8d 2b 53 3f 8f 22 69 3f
       -0.9970152 1.204559 0.8248833 0.9106836
000140 30 9a 1e bf bd 2a 0c 3f 4e 7b 2a bf 73 90 4f bf
       -0.6195402 0.54752713 -0.665944 -0.81079787
000150 81 e8 11 bf e0 65 08 bf e7 9c 8d bf eb c9 55 3f
       -0.569954 -0.5328045 -1.1063508 0.8351123
000160 4f 54 6a bf 7c 3a 75 3f e2 7b 7a bf a5 95 04 bf
       -0.91534895 0.95792365 -0.9784528 -0.5179084
000170 0c f0 8f 3f 35 1b 04 bf 19 74 a0 be 44 7c 2a 3f
       1.1245131 -0.51604015 -0.31338575 0.66595864
000180 be ee 35 3f 59 71 64 3f 2b 87 7a 3f 33 14 55 3f
       0.71067417 0.89235455 0.978625 0.83233947
000190 46 e4 b6 3f 25 36 4b 3f d7 70 16 3f dd 5c 3a 3e
       1.4288414 0.79379493 0.5876593 0.18199487
0001a0 a4 c2 a2 3f 86 6d 19 3f 91 da 31 3e 2e fc 9b be
       1.271565 0.59932745 0.17368533 -0.30465835
0001b0 08 5e 81 3f d0 77 94 3f d1 fa 80 3f 6a df 35 3d
       1.0106821 1.1599064 1.0076543 0.044402517
0001c0 4b 49 8b 3f 3a 54 cd 3f 80 79 80 3f 51 f7 96 3f
       1.0881742 1.6041329 1.0037079 1.1794225
0001d0 60 40 3b 3f 7f fc 60 3f 88 80 78 3f 53 a1 8d 3f
       0.73145103 0.8788528 0.97071123 1.1064857
0001e0 ae ee 48 3f 1e 53 53 3f 74 1a 8b 3f b2 4c 16 3f
       0.78489196 0.825487 1.0867448 0.5871078
0001f0 4d d3 c2 3e 0c 42 c3 3f ca 86 fa 3e 71 cb 29 be
       0.38051835 1.5254531 0.4893096 -0.16581513

fc.weight f4 [1, 32]
000000 78 8b 22 c0 95 1d 99 40 6e fe b2 40 6d 59 f3 3f
       -2.5397625 4.784861 5.5935583 1.9011666
000010 a1 b1 87 c0 91 0a c7 c0 70 24 2b c0 6b 53 0c 40
       -4.240433 -6.22004 -2.674099 2.1925914
000020 b0 67 a9 40 1c e3 71 40 87 06 71 40 b3 a2 31 40
       5.293907 3.7794867 3.7660234 2.7755554
000030 8e ad 73 c0 c7 f9 47 40 f4 f0 78 40 d9 7d 90 40
       -3.807468 3.1246202 3.8897066 4.5153623
000040 be 82 8a c0 90 d4 1b 40 a2 63 2d c0 40 b0 63 c0
       -4.3284597 2.4348488 -2.709206 -3.5576324
000050 bc 1f 59 c0 bd 4f 7e c0 14 93 94 c0 39 44 84 40
       -3.392562 -3.9736168 -4.642954 4.133328
000060 be 9f 88 c0 dd d3 9b 40 25 ee 94 c0 1c 16 03 c0
       -4.2695 4.869612 -4.6540704 -2.0482244
000070 7c 65 65 40 09 b8 6d c0 82 2e 28 c0 11 d8 41 40
       3.584319 -3.7143576 -2.6278386 3.0288126
