notebooks/DL_saved_models/LSTM_Fraud.pt (torch, 119462 bytes, 5 tensors)

lstm.weight_ih_l0 f4 [128, 194]
000000 80 02 0a 3e cb 19 70 be 89 0f 47 3f 16 bd 94 c0
       0.13477516 -0.23447339 0.7775808 -4.648082
000010 79 92 1a be 85 12 13 3e 02 fa ed 3d a8 e4 10 bf
       -0.15094937 0.14362533 0.11619951 -0.565989
000020 9d f9 4a bf b6 90 63 be 30 b9 9f be 5f 88 54 bf
       -0.7928713 -0.22223172 -0.31195974 -0.83020586
000030 d0 10 c4 be 92 ff a3 be dd 3c c6 bd 14 4e 2e be
       -0.38294077 -0.32030922 -0.096795775 -0.17021972
000040 ad 1d 1e be bf d6 8c bd 97 b9 62 3e e0 77 27 be
       -0.15441008 -0.06876897 0.2214111 -0.16354322
000050 ec da 1a 3f 00 bd 5b be 21 47 25 be 2d 71 54 bd
       0.604903 -0.21458817 -0.16140415 -0.051865745
000060 d6 a0 ad bd d6 c3 53 be f5 48 96 bd 66 93 3e be
       -0.08477943 -0.20680174 -0.07338134 -0.18610916
000070 d2 8f a7 3e 47 02 94 bd 7d 38 be 3e 63 1f 55 bd
       0.32726914 -0.07226997 0.37152472 -0.052031886
000080 15 f1 a7 3e 44 22 9c bd e3 64 91 bb d9 a2 e2 bd
       0.32801118 -0.07623723 -0.0044370755 -0.11066217
000090 bf 51 6a bd b8 35 01 3e 51 71 87 3e 2b 75 ac bd
       -0.057206865 0.12618148 0.2645364 -0.084207855
0000a0 63 71 e8 bd 96 42 93 3e 33 5c 50 3e af f5 d9 bd
       -0.11349752 0.2876174 0.20347671 -0.106425636
0000b0 6f f4 9c bd 95 36 28 3f 1c 12 15 3c 01 3d 9a bd
       -0.076638095 0.65708286 0.009098556 -0.07531167
0000c0 fa 6b 23 3f 08 0a ed 3e 68 2f 3e 3c dc 92 03 bd
       0.63836634 0.46296716 0.011607982 -0.032122478
0000d0 86 e5 f4 3e 0d 91 a6 3d 84 92 bf 3e 86 58 b7 be
       0.47831362 0.08133135 0.3741647 -0.35809726
0000e0 2c 76 7a bd 01 08 2c bd 74 ce 61 be a3 57 5a be
       -0.061147854 -0.04199982 -0.22051412 -0.21322493
0000f0 a8 33 8e 3e a1 52 08 bd e1 4c 57 3e 58 62 4e be
       0.27773786 -0.033281926 0.2102542 -0.20154703
000100 99 3e db 3e bc 32 e6 3d 34 b9 4b be c3 f3 29 be
       0.42821196 0.112401456 -0.19894868 -0.16596894
000110 d0 2d 33 bd dc 22 0e be c1 7f 3f bd ec b2 be bc
       -0.043744862 -0.13880485 -0.046752695 -0.023278676
000120 d5 ec 23 3e a1 31 23 3f 76 c6 c4 bd b9 78 12 bd
       0.16008313 0.637476 -0.09608166 -0.03575966
000130 43 d5 2c be 0e 3e 06 3f 91 69 a8 bd ca 69 05 3f
       -0.16878228 0.5243844 -0.0822326 0.52114546
000140 c4 c4 23 3f ff f2 83 3e 09 b6 94 bd e9 ee 21 be
       0.63972116 0.2577133 -0.07261283 -0.15813793
000150 1e 94 4e bd b5 4c 70 bd af 11 83 3e 2b 6d d8 3d
       -0.050434224 -0.058666904 0.2559943 0.10567697
000160 2a 7b 82 3c c4 30 8d 3e d7 68 f8 3d a1 2b e4 bd
       0.01592787 0.27576268 0.121293716 -0.11141134
000170 5a 52 a6 bd b4 53 ad 3e 1a cc de bd 11 c7 04 3f
       -0.08121176 0.33852923 -0.10878773 0.5186625
000180 a7 63 da bd 23 02 0c 3f 63 88 14 be 39 1a 04 be
       -0.106635384 0.5469076 -0.14505152 -0.12900628
000190 22 64 7a bd 3b bf 83 3f 62 2e 28 bd 11 97 fc bd
       -0.06113065 1.0292734 -0.04105986 -0.12333501
0001a0 2c 5e e5 3e a2 d6 ba 3e 6c 4e 0a 3f 09 d5 07 3e
       0.4479841 0.36491877 0.5402591 0.1326486
0001b0 7e 93 f4 3c 50 4c c7 3e 47 f8 b0 bd 6e 9f 9d bd
       0.029855486 0.3892541 -0.08641105 -0.076964244
0001c0 f2 93 ad bd 87 75 02 be 06 17 bb 3e 44 f6 12 be
       -0.08475484 -0.12740146 0.36541003 -0.14351755
0001d0 13 45 89 be 9b e1 37 bd b4 13 3a be 0c 9f fe bd
       -0.26810512 -0.04489289 -0.18171579 -0.124326795
0001e0 71 46 de 3e b8 36 f0 bb 39 81 59 3e 68 68 98 bd
       0.43413118 -0.0073307417 0.21240701 -0.07441789
0001f0 ef 7b 00 3d 74 28 87 be 65 72 d6 bd e5 5d 1e be
       0.031368192 -0.2639805 -0.10471038 -0.15465505
000200 e6 c5 ba 3b 02 55 81 3e 2b 8d e2 bd cf 53 8d be
       0.005699861 0.25260168 -0.11062082 -0.27603003
000210 03 b4 07 bd 93 fd 00 3e 1f ce ed bd 1c ac fd 3e
       -0.033130657 0.12596731 -0.1161158 0.49545372
000220 98 d2 5d be d4 57 10 be 9a d7 07 be db 91 a9 be
       -0.21662366 -0.14096004 -0.13265839 -0.3311909
000230 a1 30 c5 bd ef 0d 42 3f ed a9 47 bd a0 5a 3e be
       -0.09628416 0.7580251 -0.04874604 -0.18589258
000240 78 c7 5a 3e 6d 0a 25 3f b0 8b 11 3f 5e c9 ba be
       0.21365154 0.64469033 0.5685377 -0.36481756
000250 ca fd be bd 7c 4a d7 bd 12 18 5f bd b4 ee dd be
       -0.0932575 -0.10512254 -0.054466315 -0.4334618
000260 23 72 43 3e 7b 09 d4 bd 9e 1f 58 bd 50 a4 10 3e
       0.19086508 -0.10353371 -0.052764527 0.1412518
000270 57 db 8e 3e d7 e0 73 3e f3 ae c9 bd c0 22 27 be
       0.27901718 0.23816238 -0.09847822 -0.1632185
000280 35 f2 a2 bd 42 a9 54 3d 32 3e f3 3e 09 ef 38 3f
       -0.079563536 0.05191923 0.4750839 0.7223974
000290 c7 fc ff 3e f8 bd 0e 3e 5a 78 51 3f c0 d3 3b bd
       0.4999754 0.13939655 0.81824267 -0.045856237
0002a0 d5 05 19 3f fe 27 f9 3d dc 39 75 3e ac f1 eb bd
       0.59774524 0.12165831 0.23947853 -0.115207046
0002b0 ed 59 f7 3e bc 2c f1 3e 16 74 be bd 66 62 1f be
       0.48310795 0.47104442 -0.092994854 -0.1556488
0002c0 e2 b7 03 be 13 e4 41 3f 5d c4 2c 3d ab 04 b4 3e
       -0.12863114 0.7573864 0.042179454 0.3515981
0002d0 57 73 85 bd 94 06 71 3f c6 61 ce 3c 63 e3 6e 3f
       -0.0651614 0.9415066 0.025193106 0.93315715
0002e0 5e 99 66 3f 57 ca 23 be 5e 6c 2f be ac 6b 08 3f
       0.9007777 -0.15995155 -0.17131183 0.53289294
0002f0 88 90 60 3e 93 56 73 3f 78 e5 00 3f d7 de 81 3e
       0.21930134 0.95053977 0.5035014 0.25365326
000300 6f 98 b8 bd 0c b0 59 bd 20 38 b1 bc 38 30 7c bf
       -0.090134494 -0.053146407 -0.021633208 -0.98511076
000310 c2 0a 00 3e 91 ec 8f bf aa 50 b1 3d 71 13 09 bf
       0.12504104 -1.1244069 0.086579636 -0.5354529
000320 c0 09 6e bd 61 a4 7c 3d be 93 05 bf c8 7e 0a bf
       -0.058114767 0.0616802 -0.5217856 -0.540997
000330 03 df 2e bf 9e a8 36 bf 44 a0 28 3f 6f de 88 bf
       -0.6830904 -0.7135104 0.65869546 -1.0692881
000340 ed 4b b6 be 33 d5 f0 be 39 3c 16 be 30 57 9c be
       -0.35604802 -0.47037658 -0.1467141 -0.3053527
000350 6a 7a 3f 3e 9c 27 87 be b9 3d 41 3e e9 96 52 be
       0.18699041 -0.26397407 0.18871202 -0.2056538
000360 11 72 5f be 4e a6 a3 bd 8b 9a ad be 6f e8 2d be
       -0.21820857 -0.079907045 -0.3390697 -0.16983198
000370 a0 2c 29 be 71 32 19 bd 18 c2 43 3e e6 78 29 be
       -0.1652093 -0.03740162 0.1911701 -0.16550025
000380 0f e5 a4 be 81 21 a7 be 51 93 1b be 1b d6 1e bc
       -0.32206008 -0.3264275 -0.15192915 -0.009694601
000390 5c a2 8c be d8 44 a0 bd 41 01 3c bd 14 d3 06 3e
       -0.2746762 -0.07825631 -0.045899633 0.13166457
0003a0 e4 79 5b be 77 f1 74 bd 60 e2 58 3e 25 92 ab be
       -0.21433216 -0.05980059 0.21180105 -0.33509937
0003b0 bb ba ba bd 89 ea ad be 44 7e d0 bd 1b d3 a9 be
       -0.09117647 -0.33968 -0.10180333 -0.33168873
0003c0 20 ea e6 ba 10 0e ab be f0 b3 cb 3e 0e 16 38 bd
       -0.0017617382 -0.33409166 0.3978572 -0.044942908
0003d0 59 f0 3d 3d c5 ee 23 bd 94 01 aa be cb 53 7f 3e
       0.04637179 -0.04002263 -0.3320433 0.24934308
0003e0 a0 42 1a be d4 29 46 be a2 98 bf bd d9 91 0e be
       -0.15064478 -0.19351894 -0.09355284 -0.13922824
0003f0 15 0e 84 bd aa 24 e0 3e c5 57 12 3f 1b 4c fc bd
       -0.064479984 0.43777972 0.57165176 -0.123192035

lstm.weight_hh_l0 f4 [128, 32]
000000 ad 5e 97 bd 07 62 92 3d 02 5d e9 bd 31 3b f3 3d
       -0.07391105 0.071476035 -0.11394693 0.11876524
000010 8e c4 56 bc b6 f2 1c bd ec 3a 00 bd 83 6d 35 bd
       -0.013108386 -0.038317405 -0.031306192 -0.04429389
000020 71 88 32 be f8 c9 67 bd fc 26 a7 bd cd bb 2e 3e
       -0.17434861 -0.056589097 -0.081617326 0.17063828
000030 53 82 ab 3d 67 a1 ef bb d1 9c 60 3d 75 0d 10 3e
       0.08374467 -0.007312942 0.05483705 0.14067633
000040 6c 5d e0 bd 3e 54 a5 bd 4a 07 f9 bd 51 fd d3 bd
       -0.10955319 -0.080727085 -0.121595934 -0.10351051
000050 21 0c 68 3c a2 b1 b6 bb cb c9 30 bd 59 ac 24 3e
       0.014163048 -0.0055753747 -0.043161195 0.1608137
000060 3c 64 fc bd 30 b6 2e 3e 75 40 20 bd 37 52 43 bd
       -0.12323806 0.17061687 -0.03912397 -0.047685828
000070 4c cf ac bc 54 6b d2 bd 10 80 07 be bf 97 c7 bd
       -0.02109494 -0.102743775 -0.13232446 -0.0974574
000080 6d 24 1d 3e e1 09 82 bd 6e 21 87 bc a8 b6 2b 3e
       0.15345927 -0.063495405 -0.016495433 0.16768897
000090 7c ba 2c 3e d8 9f dc bc 87 56 e6 bd 34 e8 06 3e
       0.16868013 -0.026931688 -0.112469725 0.13174516
0000a0 51 1c 1c be 26 8b 20 be 53 fa 89 bc c8 0e 0e 3e
       -0.15245177 -0.15678081 -0.016842997 0.13872826
0000b0 f6 7b f7 bd ef b9 ad 3d 7e 5e 90 3d 13 77 fe bd
       -0.120841905 0.0848273 0.07049273 -0.12425055
0000c0 47 9d 25 be 20 f2 6a bd 20 81 0f 3e bb 97 fa 3d
       -0.16173278 -0.057359815 0.14014101 0.122359715
0000d0 28 67 00 be 65 97 d5 3d 3b 1b 81 bd 10 5f 34 3e
       -0.12539351 0.10429267 -0.06304022 0.17614388
0000e0 75 39 4d bd ec 34 9e bd 93 3d 65 3d a9 ab 04 be
       -0.050103623 -0.07724938 0.055966925 -0.12956108
0000f0 68 6b ac 3d bb f5 f2 bd 4f c4 18 3b fb f0 72 3d
       0.084189236 -0.118632756 0.0023310368 0.059311848
000100 f4 c5 27 bd 13 cd bf 3d 62 43 1a bc c3 a1 13 be
       -0.040960267 0.09365287 -0.009415479 -0.14417176
000110 98 e1 34 3e f7 69 22 3d 56 a7 47 bd 1e 66 b4 bd
       0.17664182 0.039651837 -0.04874357 -0.0880854
000120 71 2a c9 3d 90 4e 59 3c 13 8a fa bc c6 22 15 bd
       0.09822548 0.01326336 -0.030583417 -0.036410116
000130 7e 57 9a bc 5f dc 68 3d dd 04 f8 bd 45 f0 9a 3d
       -0.018840548 0.056850787 -0.121103026 0.07565359
000140 ca ad 28 3e 94 ed ce bd 51 dd d6 bd 96 3c 57 3d
       0.16472545 -0.10103908 -0.104914315 0.052548014
000150 ce 73 d8 bc bd e2 dd 3d 4e 1a 2e 3e ba 12 b1 3d
       -0.026422407 0.108342625 0.17002222 0.0864615
000160 0e d8 21 be a8 15 cc bd 4d a1 e9 3d bb 17 98 bc
       -0.15805075 -0.09965068 0.11407719 -0.018566003
000170 0b bc 98 3c 51 16 8b 3d e1 5e 23 be d4 91 0a be
       0.018644353 0.06791366 -0.15954162 -0.13532192
000180 e1 77 d2 bd c0 49 00 3e b7 37 18 3e 75 d2 84 bd
       -0.10276771 0.12528133 0.14865004 -0.06485454
000190 e9 b5 b8 bc e8 4b 6f bd 7b 4e 86 bd c9 7b b1 bd
       -0.022547679 -0.058422 -0.06557938 -0.08666188
0001a0 06 ac b3 bd 2d c9 09 3e fa bd 81 3d 31 84 8e 3c
       -0.08773045 0.13455649 0.06335063 0.017397018
0001b0 82 c1 de 3b c6 de bf bd 7b d5 74 3d 70 b4 34 3e
       0.0067979703 -0.093686625 0.059773903 0.17646956
0001c0 bf d6 2d be e7 b8 0f 3e f4 fa 19 3e 6c 6a 1b be
       -0.1697645 0.14035378 0.15037137 -0.15177315
0001d0 01 60 88 bd f0 e1 32 be 06 18 f1 bd fa f5 12 be
       -0.06658936 -0.17469001 -0.1177216 -0.14351645
0001e0 de d2 21 3d c2 55 f0 3d 57 00 ea bd 8e b2 1a be
       0.03950774 0.11735107 -0.11425846 -0.15107176
0001f0 ec ca 2e be b8 a4 55 3d 62 7d 73 bd 9d 97 34 be
       -0.17069596 0.05215904 -0.059445746 -0.17635961
000200 c6 ac 17 3e f3 b8 d7 bc 94 8a 85 bc 4c 65 fc 3b
       0.14812002 -0.026333308 -0.01630143 0.007702505
000210 4e 72 9c bd fa cb 9c bb c7 bd fd bd b7 fc b7 bd
       -0.076389894 -0.004785058 -0.12389713 -0.089837484
000220 0f d9 8b bd e6 93 ce bd 9e 1b d1 bd cc ec 30 3e
       -0.0682851 -0.10086803 -0.10210346 0.17277831
000230 60 c8 9c bd 5e 89 33 be 2f 1c ad bd 49 f1 1a bd
       -0.07655406 -0.1753287 -0.08452641 -0.037827764
000240 e6 c9 07 3c 1e ef ba 3d f1 94 2f be 63 05 24 3e
       0.008287882 0.09127639 -0.1714666 0.1601768
000250 1a 46 2b bc 94 70 58 bd 62 a5 33 bd 28 e2 36 3c
       -0.010453725 -0.052841738 -0.043858893 0.011162318
000260 5c f7 5a 3d 7a 9f d6 3d 30 53 0c 3e 6f 30 e2 bd
       0.053458557 0.104796365 0.13703609 -0.11044394
000270 8f 82 9c bd 20 1c f5 bb ce f4 cc bd 9f c9 d1 3d
       -0.076420896 -0.0074801594 -0.1000763 0.10243534
000280 af 9b 85 3d 63 a6 01 3e 3d f6 b1 bd 58 87 c4 3d
       0.06523835 0.12661128 -0.08689544 0.09596127
000290 05 8e 39 3a 62 8d 23 3c 6f 51 27 3d 8d cf d8 3d
       0.00070783525 0.009982439 0.040849146 0.10586462
0002a0 71 24 d6 3c ce 42 da bd 11 d6 7e bd 40 b0 0c 3e
       0.026140423 -0.10657273 -0.06221587 0.13739109
0002b0 65 1d d8 3d 53 27 14 be e0 8c fd 3d 1a 57 f9 3c
       0.105524816 -0.14468126 0.123803854 0.030437041
0002c0 0b 68 22 be e2 ab 65 3d 4d f8 17 be 14 0c 19 bb
       -0.15860002 0.056072123 -0.14840813 -0.0023353146
0002d0 d4 87 2c be c8 71 e9 bd fc ea e7 bd c5 b5 20 be
       -0.1684869 -0.11398655 -0.113241166 -0.1569434
0002e0 bb a5 fc 3c 0f 1e 2b 3d c7 ab 4f 3d 7c 60 1a 3e
       0.030840745 0.041776713 0.05070093 0.15075868
0002f0 48 1e 7b bd 9c d4 c3 3d b3 a2 cc 3d 34 18 03 3e
       -0.061308175 0.095620364 0.0999197 0.12802202
000300 58 07 cf 3d 7a 41 bd 3d e0 3f a1 bd df 81 27 3d
       0.101088226 0.09241004 -0.07873511 0.04089534
000310 af 67 30 bd 43 e4 70 bd 8c a1 29 bc dd e2 69 bd
       -0.04306763 -0.058811437 -0.010353457 -0.05710112
000320 1e f8 91 bb 57 9f 87 3c d6 8a 63 3c 91 59 cf bd
       -0.0044546267 0.016555471 0.013888082 -0.10124505
000330 8a ee a4 3c ad 5f a5 bc 1b 8d 7e bd 93 88 03 be
       0.020133276 -0.020187223 -0.062146287 -0.12845068
000340 81 52 25 3e 58 9c a5 3d 89 72 fb bd bb a0 ff bd
       0.16144754 0.08086461 -0.12277705 -0.12481829
000350 81 c0 36 3d 5d c2 b3 3d ff 15 b7 3d 37 c8 21 be
       0.04461718 0.08777306 0.08939742 -0.15799032
000360 8e 55 15 be 59 3e 26 be 03 7a dc bd 78 27 14 3e
       -0.14583418 -0.16234721 -0.107654594 0.14468181
000370 f9 cd b8 3d 20 c1 42 3d ff 77 dd 3c 0a 73 c3 3d
       0.09023661 0.04754746 0.027034758 0.09543426
000380 a5 ca 0c 3b 80 db ec 3d d1 43 0b be 80 18 cf bd
       0.002148309 0.11565304 -0.13600089 -0.10112095
000390 57 b8 92 3d 0e c0 16 be f8 4e cb 3d c3 1b bc bd
       0.07164066 -0.147217 0.099271715 -0.09184983
0003a0 b1 c3 a2 3d 75 bf 7f bd e8 d8 19 3e 66 ef 5b 3d
       0.079474814 -0.062438447 0.1502415 0.053695105
0003b0 33 25 59 bc 4d 1c 13 3e 37 47 94 3d b3 5a 15 bd
       -0.013253498 0.14366265 0.07240146 -0.03646345
0003c0 eb b4 34 be 09 e0 2f be a1 bf 33 3e 7a 01 60 bc
       -0.1764714 -0.17175306 0.1755357 -0.013672227
0003d0 00 11 1a bb f4 e0 24 be db 6e 21 be eb 99 3b 3d
       -0.0023508668 -0.16101438 -0.15764944 0.045801084
0003e0 f3 ac f7 bd 2a 07 73 bd 43 79 09 3e 38 23 28 3e
       -0.12093534 -0.059333004 0.13425164 0.16419685
0003f0 c7 5b 19 be ac 25 87 3d fa c6 02 be 84 ba 47 3d
       -0.14976417 0.06598982 -0.12771216 0.04876186

lstm.bias_ih_l0 f4 [128]
000000 e3 59 c5 be 55 07 97 3e e4 7c 38 3f 05 5f dc 3d
       -0.3854514 0.2949778 0.7206557 0.10760311
000010 b5 a8 76 bf f7 1f 71 3e 23 59 af 3c 1a 4f 4d 3f
       -0.96351177 0.2354735 0.021404808 0.80198824
000020 f1 ee cb 3e 74 01 b7 3e ba 52 b9 3d d6 3d e0 3d
       0.39830735 0.35743296 0.09048982 0.10949294
000030 2e 22 0f 3f 93 ea b0 3e 46 a3 1f 3f 92 f0 11 3f
       0.5591153 0.34553966 0.6235851 0.57007706
000040 84 ee 7e be 08 18 2b 3d 5a 98 43 3f b6 a9 d9 3e
       -0.24895674 0.041770965 0.76404345 0.42512292
000050 16 83 99 3e 3d 81 9c 3f dc 26 ab 3e 62 3f dd 3e
       0.29982823 1.222694 0.33428085 0.4321242
000060 e6 61 ff 3f f6 e8 77 3f 3b a7 23 3e 6e 67 5f 3e
       1.9951751 0.96839845 0.15981762 0.21816799
000070 c8 ce 6e bf d2 a6 83 3f 8c 95 6a be e4 4e c5 3e
       -0.93284273 1.0285285 -0.2290861 0.3853675
000080 c9 c5 90 3d 05 c0 d7 bd 5f 34 56 bd 50 71 24 be
       0.070689745 -0.10534672 -0.05229604 -0.1605885
000090 13 76 cc 3c 52 2b 0d 3d fa 95 16 3e 1f 7e 0f 3e
       0.024958646 0.03446514 0.14705649 0.14012955
0000a0 7b 88 af bd fb 6b ac bd 2e 1b 2a be 87 d8 89 3d
       -0.085709535 -0.08419033 -0.1661193 0.067307524
0000b0 e3 32 c4 bd c0 f1 40 3d f7 7e 8e 3d 9f 3c 2a 3e
       -0.09580018 0.04710555 0.0695781 0.16624688
0000c0 4a dc ef bd f4 61 e8 3b bb e2 a1 3c 1d 86 f1 3d
       -0.11711939 0.007091755 0.019761434 0.11793158
0000d0 10 db 9b 3d df 1e 2f 3e 53 f8 3a 3c 65 b2 0d be
       0.07610142 0.1710162 0.011411744 -0.13837583
0000e0 5c f2 10 3e e5 74 04 be ed 7e 1c be 9e 59 97 bd
       0.14154953 -0.12935217 -0.15282793 -0.0739014
0000f0 48 59 96 bd 76 6a 17 3e d7 91 4a 3d 56 ac 80 3d
       -0.07341248 0.14786705 0.04945549 0.062828705
000100 a0 9e 95 3f d4 88 94 3e 77 43 28 bd b8 32 98 bd
       1.1689034 0.29010642 -0.041079964 -0.07431549
000110 93 29 30 3f ee 54 97 bd 56 58 c6 be 3e 7e 11 3f
       0.6881344 -0.07389246 -0.3873927 0.56833255
000120 7b 1b a6 3d f5 36 2c 3f 93 3c a1 bd 94 16 b6 bd
       0.0811071 0.6727136 -0.07872882 -0.08891025
000130 b2 d8 31 bf 94 9e 7f be e8 bb 0d 3f 9b 7b 50 3e
       -0.69471276 -0.24962837 0.5536485 0.20359652
000140 e0 f0 0b be 38 9b 45 be e1 7e 32 bd f7 ca 41 be
       -0.13666105 -0.19297493 -0.043578032 -0.18925081
000150 1d ff 7a 3e 23 d2 b9 be 1f 3b 38 3f f0 96 6a be
       0.2451138 -0.36293134 0.7196521 -0.2290914
000160 20 54 98 bf a9 dd d5 3e d0 83 4a 3f b9 61 72 3e
       -1.1900673 0.41770676 0.7910738 0.2367009
000170 cc e9 88 bf 88 a2 4c 3e 3d 34 9b be 86 44 1c 3e
       -1.0696349 0.19983876 -0.30313292 0.15260515
000180 12 71 90 bf 6c 7b a9 3e 54 68 39 3f 74 b1 a5 3e
       -1.1284506 0.33101976 0.7242482 0.32361948
000190 de 79 00 bf b5 6c ff 3d 1e f1 f9 bb 46 b5 81 3e
       -0.50185955 0.12471906 -0.0076276204 0.25333613
0001a0 fc ea 8c 3d 1b a0 79 be 07 c1 73 be ec dd 02 3d
       0.06880757 -0.24377482 -0.23804103 0.031949922
0001b0 82 60 f9 3e 8f 3d e2 3e 94 c1 10 3f d1 fc 69 3f
       0.48706442 0.4418759 0.56545377 0.9140139
0001c0 a7 bb ce 3d 77 b6 e7 3d b4 0d 21 3f ed c0 ce 3e
       0.100943856 0.11314099 0.62911534 0.40381566
0001d0 28 e6 16 3f 1f 34 78 3f f3 87 a2 3e 25 b0 21 3f
       0.5894494 0.9695453 0.31744346 0.631594
0001e0 52 70 c8 3f 24 2e 87 3e 39 31 1e 3d 03 d7 f8 3e
       1.5659277 0.2640239 0.03862116 0.4860154
0001f0 24 c5 d0 bf 69 7d 67 3f ca a4 b6 be 95 8c 7d 3e
       -1.6310163 0.90425736 -0.356726 0.24760659

lstm.bias_hh_l0 f4 [128]
000000 7b e0 05 bf 75 47 bd 3e 58 d1 2d 3f 7a 5b 22 3e
       -0.52295655 0.3696858 0.6789756 0.15855208
000010 cd 99 62 bf e3 7a d5 3e 72 e9 41 3d a0 e7 32 3f
       -0.8851593 0.41695318 0.04734177 0.6988468
000020 e1 70 68 3e 10 c7 80 3e a4 6b a0 3e 68 83 ca bd
       0.2269931 0.25151873 0.31332123 -0.09888345
000030 10 c8 fe 3e f7 94 b4 3e 32 d8 d8 3e b3 e0 c5 3e
       0.4976201 0.352699 0.42352444 0.38647994
000040 82 bf 8b bd 72 2f 27 3d 8a 56 11 3f 8a 1c 34 3e
       -0.068236366 0.04081673 0.56772673 0.17589012
000050 67 be c6 3d 0f 06 99 3f bb d2 10 3e b6 9d ed 3e
       0.09704285 1.1954974 0.14142887 0.46409386
000060 5e 94 02 40 b0 ad 2b 3f 52 17 92 3e 20 c7 99 3e
       2.0403056 0.670619 0.28533417 0.30034733
000070 be 6b 76 bf 5f b9 36 3f 93 57 b8 be d4 2e 9f 3e
       -0.9625815 0.71376604 -0.36004314 0.31090415
000080 65 bd 29 be bf ba aa 3d 6a 0b c1 bd bc d7 01 be
       -0.16576155 0.083364 -0.09426005 -0.12679952
000090 01 f4 00 3e 49 fc 99 bd 15 91 0a be 1e 13 c9 bc
       0.1259308 -0.07518823 -0.13531907 -0.024545249
0000a0 7f 99 2f bd c5 ed 86 bc 20 94 7b bd 29 bf 0d be
       -0.042870995 -0.0164708 -0.06142056 -0.13842453
0000b0 bc 5e 08 3e 1d 09 09 3d b5 19 2e be a1 d9 27 be
       0.13317388 0.033455957 -0.17001994 -0.16391613
0000c0 ea 9c 01 3e 3e 45 34 3e 6b 6f 11 be d0 88 0d be
       0.12657514 0.17604539 -0.14202659 -0.13821721
0000d0 f6 1c a8 bd 61 71 07 be 8f 42 b9 3d f1 3c 8b bc
       -0.08208649 -0.13226844 0.09045898 -0.016996833
0000e0 91 17 0c 3e 83 0d 2e be f1 dd ee 3d d1 23 f9 3d
       0.13680865 -0.16997342 0.11663426 0.121650346
0000f0 8a 9c aa 3d 79 a2 04 bc c3 83 27 3e 9a 6b f6 bc
       0.08330639 -0.008095377 0.16358857 -0.030080605
000100 43 00 7c 3f 6e d2 9b 3e 61 db bc 3d a9 a0 54 3c
       0.984379 0.30433983 0.09221531 0.0129777575
000110 01 7e 01 3f 56 f9 bf bd 36 6b f5 be da 72 e4 3e
       0.5058289 -0.09373729 -0.47933358 0.44618875
000120 e9 9b 58 3e cb d4 67 3f 14 ed ab 3d 64 25 7e 3b
       0.21153225 0.9055907 0.083948284 0.003877961
000130 58 54 1d bf ca 27 cf be 4e 6b fb 3e ae 6e 8d 3e
       -0.61456823 -0.40460044 0.49105304 0.27623504
000140 ae 4d bf 3d 88 f5 c4 be bd 81 54 be af 1e f4 be
       0.09340988 -0.38468575 -0.20752616 -0.4767966
000150 f1 a7 38 3d 2d d2 d3 be ea f0 e5 3e 2f e3 aa bd
       0.045082036 -0.4137129 0.44910365 -0.08344113
000160 85 fd 7b bf 05 77 6a 3e 60 05 1f 3f cb 8f b6 3e
       -0.98433715 0.22896965 0.62117577 0.3565658
000170 a7 e5 53 bf 04 8b 21 3e 99 cb 74 3c fe f8 53 3d
       -0.82772297 0.15775687 0.01494112 0.05175113
000180 56 62 8e bf b3 c0 65 3e e8 c8 3a 3f 37 0f 73 3e
       -1.112376 0.2243679 0.7296281 0.23736273
000190 a3 83 1d bf 66 f1 90 3e 17 6f e7 bd 8c 30 a1 3e
       -0.61528987 0.28309172 -0.113004856 0.3148235
0001a0 60 bc 99 bc 19 16 bd be cf 4b a7 bd de f3 84 3e
       -0.018766582 -0.36930922 -0.08168756 0.25967306
0001b0 8b f6 ec 3e e2 54 4b 3e 7a 49 de 3e 30 76 85 3f
       0.46281847 0.19856599 0.43415433 1.0426693
0001c0 db c0 7d bd 28 2b cc 3e 7e dc 21 3f 92 51 22 3f
       -0.0619515 0.39876676 0.6322707 0.63405716
0001d0 15 f5 8c 3e ee 14 8c 3f d4 c6 2f 3e dd 72 2d 3f
       0.27530733 1.0943887 0.1716569 0.6775339
0001e0 be 1b cb 3f 69 cf d6 3e 0f 0b 92 3d c3 c1 f8 3e
       1.5867841 0.41955116 0.071310155 0.48585328
0001f0 12 0a d9 bf b2 b4 82 3f c9 72 9e bd d9 33 c1 3d
       -1.6956198 1.0211394 -0.07736737 0.09433717

fc.weight f4 [1, 32]
000000 3e 90 b7 c0 12 3b 61 3f 69 ef 47 3f 02 d7 73 bf
       -5.7363577 0.8798076 0.78099686 -0.9524995
000010 f0 7d 8e bf 18 08 a5 bf 48 66 ee bf 49 33 9f bf
       -1.1132183 -1.2893095 -1.8624964 -1.2437526
000020 78 fa 84 3f 6e a4 2d c0 fd 21 a8 bf b1 2c bc bf
       1.0388937 -2.713161 -1.3135372 -1.4701139
000030 98 4c ce 3f 20 20 5b bf a5 72 6c 3f 2d c8 de bf
       1.6117125 -0.85595894 0.92362434 -1.7404839
000040 8d b9 f9 bf 0f 98 9e bf 80 bf 73 3f 12 07 a6 3f
       -1.9509751 -1.2390155 0.9521408 1.2970908
000050 a8 9c 86 3f ac 76 11 40 09 fd 9d 3f 12 bc 76 bf
       1.0516558 2.2728682 1.2342845 -0.9638072
000060 ab 75 10 c0 68 f5 bc bf 3b 55 b1 3f 2a 71 71 3f
       -2.257182 -1.4762392 1.3854135 0.943133
000070 30 63 85 40 a8 ff 8a bf 9b 9a 29 c0 93 b6 fd bf
       4.168358 -1.085927 -2.6500614 -1.9821342
