notebooks/DL_saved_models/MLP_Fraud.pt (torch, 60956 bytes, 5 tensors)

fc1.weight f4 [64, 194]
000000 fe cd 1b bf b4 24 49 3e 2b 02 7f bd 8e c9 b8 bf
       -0.60861194 0.19642907 -0.062257927 -1.443651
000010 d3 b0 a5 bc 48 bd 92 3d 66 6d 27 3e 32 70 a8 be
       -0.020225918 0.07165009 0.16350326 -0.32898098
000020 06 de 51 3e f0 88 18 bd fd 83 98 3e a1 f5 33 be
       0.20494851 -0.03723997 0.297882 -0.17574169
000030 6a cc 92 3d be 68 6f be e2 ca dc 3e 9f 16 82 3e
       0.07167895 -0.233798 0.43123537 0.25407884
000040 b8 52 61 3e 41 bb 57 3f 56 28 ca 3e 73 92 04 3f
       0.22004211 0.842701 0.394839 0.51785964
000050 2f 65 62 3e d3 a6 5c 3e 8c bf e8 3d 90 8f b5 3e
       0.22108911 0.21548013 0.1136466 0.35461092
000060 ab cc e0 3e 08 b5 c6 3b 5a 96 ea 3e 7a 3d 7d 3e
       0.4390615 0.006064061 0.45817834 0.24730483
000070 71 12 e6 3c 50 95 35 3f 40 6d 53 3f 88 6f 34 3f
       0.028084965 0.7093096 0.8258858 0.70482683
000080 5c e8 49 3f 97 cf 4b 3d 51 26 37 3f 26 da be 3e
       0.7887018 0.04975852 0.7154284 0.3727581
000090 cf db 36 3f b3 c8 84 3e 9f a4 34 3f ce b1 55 3f
       0.7142915 0.2593437 0.7056369 0.83474433
0000a0 44 86 2a 3e 76 0f 45 3f 2d ce 4a 3f a6 20 16 3f
       0.16652781 0.76976717 0.7922085 0.5864357
0000b0 54 08 41 3f f3 80 28 3e 33 08 38 3d 37 b7 56 3f
       0.7540333 0.1645544 0.044929694 0.83873314
0000c0 68 fc d3 bd 08 e0 13 3f c5 81 6d 3a a5 bc 4d 3f
       -0.10350877 0.5776372 0.00090601697 0.80365974
0000d0 b5 c4 4c 3f 90 13 29 3e 98 78 3b 3f b8 42 88 3a
       0.7998765 0.16511369 0.73230886 0.001039586
0000e0 84 ec 53 3f cf d5 be 3e ae 94 8c 3e 99 60 11 3e
       0.8278277 0.37272498 0.27457184 0.14197005
0000f0 3f b6 78 bd 98 af 42 3f e1 0a 3f 3f eb 8a c4 3d
       -0.06072068 0.76049185 0.74625975 0.09596809
000100 7d ca 8e 3e 37 e9 b9 3e ea 85 32 3b 34 60 95 3e
       0.2788886 0.3631074 0.0027240464 0.2917496
000110 7e d0 41 3f 73 7a 89 3d 6d 8f 37 3f 4a 01 42 3f
       0.7570876 0.067128085 0.71703225 0.75783217
000120 7e 55 31 3e 1b 99 54 3e 54 71 36 3f 44 4d 6a 3d
       0.17317769 0.2076153 0.71266675 0.057202592
000130 85 b0 70 3e b9 98 15 be 46 1e 4e 3f 86 d6 34 3f
       0.23504837 -0.1460904 0.80514944 0.70639837
000140 6a ee e6 3d b1 6c 55 3f 6e a6 52 3f 9e de 32 3e
       0.112759426 0.83368975 0.822852 0.17467734
000150 0d 91 43 3f cc 80 c7 3d 17 59 77 3e a2 f2 c0 bc
       0.76393205 0.09741363 0.24155079 -0.023553196
000160 4b d4 3b 3f 92 d5 19 3e c4 4d 36 3e 60 90 24 3e
       0.7337081 0.15022877 0.17803103 0.160707
000170 42 a7 c1 3e bf c3 c4 3d 45 bc a4 3d 70 14 bf bd
       0.3782292 0.09607648 0.08043722 -0.0933007
000180 54 d8 36 3f 35 2a c5 3d ff 4f e0 3e bf 1b 9b 3e
       0.7142384 0.09627191 0.43811032 0.30294606
000190 d0 60 d6 3d 45 88 cc 3e b1 96 05 3e 6e cf 00 3f
       0.10467684 0.39947715 0.13045765 0.5031651
0001a0 7f 21 3d 3f 80 0e 3f 3c 4a 93 e0 3d c7 84 3b 3f
       0.73879236 0.011661172 0.10965593 0.7324948
0001b0 5e 32 3c 3f db 5e 48 3f 65 e0 77 3e b4 a8 89 3e
       0.73514354 0.7826974 0.24206693 0.26886523
0001c0 c8 21 4d 3f 47 63 8c 3e 6b c1 45 3f 06 0f 10 3f
       0.8012967 0.27419493 0.7724826 0.56272924
0001d0 03 d1 e9 3d 1f e1 cc 3e 16 c1 ce 3d 60 48 52 3f
       0.11416819 0.40015504 0.10095422 0.82141685
0001e0 c7 ec 13 bd b5 3a 42 3e a1 59 34 3f f4 27 36 3f
       -0.03611448 0.18967707 0.7044926 0.71154714
0001f0 dc 29 42 3f 1d c5 b8 3d bc 41 04 3f 86 c1 ef 3b
       0.7584512 0.090219714 0.516628 0.007316771
000200 1e f7 cd 3c 19 af 4c 3f 55 d7 49 3f 71 01 4a 3e
       0.025142249 0.7995468 0.78844196 0.19727112
000210 7d 6b 57 3f d9 8b 93 3e 51 ba 8a 3d 3f 33 34 3f
       0.8414839 0.28817633 0.06773818 0.70390695
000220 fb 56 b4 3d e7 b4 e2 3d 9c 90 09 3f a9 f1 05 3e
       0.08805653 0.11069661 0.5373628 0.13080467
000230 e5 2a 3c 3f ba 2f 36 3e c6 db 49 3f c1 cd 68 3e
       0.7350295 0.17791644 0.7885097 0.22734739
000240 26 2b d3 3d ba 0f b1 3d a2 da 88 3e 5c e8 14 3e
       0.10310964 0.08645578 0.26729304 0.14541763
000250 db 78 b4 3e 07 fc 1d 3f a9 74 4b 3f 6c ac f8 ba
       0.35248455 0.6171269 0.79474884 -0.0018972284
000260 53 76 e7 bc de 48 df 3e 4a 45 3d 3f e5 d0 67 3d
       -0.028254664 0.4361028 0.7393385 0.0565957
000270 39 1e 4f 3f 96 f8 26 3e d2 69 eb 3e 86 1a df 3c
       0.8090549 0.16305766 0.45979172 0.027234327
000280 06 b6 53 3e 93 f1 33 3e f7 fe e5 3d 34 26 bf 3d
       0.20674905 0.17572622 0.11230271 0.093334585
000290 a1 0b 7e 3e 35 d6 80 bb 36 a7 07 3e 92 17 d2 bc
       0.24809124 -0.0039317855 0.1324738 -0.025646005
0002a0 21 6b 11 3e 66 fb 6c 3e bc bf 52 3e 40 a1 ef 3e
       0.14201023 0.23142776 0.20580953 0.4680271
0002b0 0d 94 9d 3d cf a6 52 3f 09 ba 18 3f 43 5b 4c 3e
       0.07694254 0.8228578 0.5965887 0.19956689
0002c0 03 7e af 3d ee a4 0d 3e 30 c2 8b 3e bd d8 57 3f
       0.08568957 0.13832447 0.2729659 0.8431509
0002d0 e0 af 38 3f 53 08 0e 3e 37 cd 7b 3e ce d8 39 3e
       0.72143364 0.13870363 0.24590002 0.1814911
0002e0 95 3c c9 3e 0a d2 42 3e f8 62 24 3f ab b9 53 3f
       0.39304033 0.19025436 0.64213514 0.8270518
0002f0 b7 88 82 bc 26 39 21 3e 51 2e 41 3f 15 ff 38 3f
       -0.015934331 0.15744457 0.754613 0.72264224
000300 28 da 4f 3f 3c 22 50 3f 7d 68 b4 3d 10 e9 cc bc
       0.81192255 0.8130224 0.08808992 -0.025013477
000310 58 58 af 3e 67 ba 88 bf 6b cd e5 3c 5d 33 8d 3d
       0.34247088 -1.0681885 0.028052052 0.068945624
000320 3c 13 82 3e b5 ad fc bd c2 60 64 3c ab ad 86 3e
       0.254053 -0.123378195 0.0139390845 0.26304373
000330 0d 9f 79 3d 82 ea 04 3f 87 6a 98 3e ae b4 84 bd
       0.0609427 0.5192033 0.29768774 -0.064797744
000340 1d 2a 30 be 1c ef 7f be e5 c1 7c bd 62 ba 1b be
       -0.17203565 -0.24993557 -0.06170835 -0.15207818
000350 05 9a 3f be 81 ac 2e be 72 1d 04 3f 11 35 dc bd
       -0.18711098 -0.17057993 0.5160743 -0.10752309
000360 10 83 52 be 8e 75 5d be c1 83 5e be fa b8 58 be
       -0.20557809 -0.21626875 -0.21729948 -0.21164313
000370 79 29 7f be ad ab 47 be d3 c4 c2 3d 31 ed 37 be
       -0.24918164 -0.19499083 0.095101975 -0.17961575
000380 f8 76 0f be 0e 0c 12 be 20 9d 66 be fa 47 38 be
       -0.14010227 -0.14262411 -0.22520876 -0.17996207
000390 2c cc 2a be c4 92 83 be 02 84 48 be c4 dd 01 3f
       -0.16679448 -0.2569791 -0.19581607 0.5072901
0003a0 c8 08 83 be 6c 7e 0d be d3 a2 61 3f de 14 4b be
       -0.25592637 -0.13817757 0.88139075 -0.19832179
0003b0 99 34 8a be 31 44 6e be ac c8 51 be 09 60 f1 3e
       -0.26993254 -0.232682 -0.20486706 0.47143582
0003c0 02 38 7d bc b2 cb 21 be 1c 6e 97 3e ae ec 12 3f
       -0.015455248 -0.1580036 0.29576194 0.57392395
0003d0 9d 5a 82 be 5a ca 65 be dc b3 61 be 34 f4 c7 bd
       -0.25459757 -0.22440472 -0.22041267 -0.09763375
0003e0 31 58 a6 bd 7b 18 85 be 85 e7 4d be f8 7f 39 be
       -0.0812229 -0.2599524 -0.20107849 -0.18115222
0003f0 ea e6 6e bd 58 60 80 be ef 92 79 be 2c 18 2d be
       -0.058325686 -0.25073504 -0.24372457 -0.16903752

fc1.bias f4 [64]
000000 eb 43 35 bf fd b1 80 3e 15 9f 64 bf 78 41 30 bf
       -0.7080676 0.25135794 -0.8930524 -0.688499
000010 a2 23 9e bf d0 0e 0d 3f 70 1e d4 be 36 7d 8f bf
       -1.2354624 0.5510073 -0.41429472 -1.1210086
000020 3a ef 47 be a1 37 92 be 8e f6 63 bf e6 49 b6 bc
       -0.19524851 -0.28558066 -0.8904809 -0.022252034
000030 b5 4b c5 bd f2 20 26 3e 11 73 97 be 6e 48 88 bf
       -0.096335806 0.16223505 -0.29579976 -1.0647104
000040 aa d1 67 be 61 21 d2 be b0 cb 90 be 15 fd 8d bf
       -0.22638574 -0.4104109 -0.282804 -1.109286
000050 00 a0 92 be e1 2e ae bd 79 3a f7 3d da 45 81 bf
       -0.28637695 -0.08505035 0.120717 -1.0099442
000060 a2 89 36 bf a5 c3 10 bd ed 2d 19 3e 12 b4 49 be
       -0.7130376 -0.03534283 0.14958926 -0.19697598
000070 eb 54 4f 3e 68 ca 88 3d c6 18 51 bd 7d b9 45 be
       0.20247237 0.06679231 -0.051049016 -0.1930904
000080 33 f3 7b 3d c6 57 02 be df 63 14 bf dc 55 1b bf
       0.06151123 -0.12728795 -0.5796489 -0.60677886
000090 a0 e2 70 bf 18 6e d8 be 7b f7 80 3e d5 60 07 3f
       -0.940958 -0.42271495 0.25188813 0.5288213
0000a0 cd 57 b3 be be aa 21 3e df f4 2d 3e 13 22 83 bf
       -0.35027924 0.15787789 0.16987942 -1.0244774
0000b0 ec ef 94 be c4 97 9b be 6d ff f7 be f6 7d c0 3e
       -0.29089296 -0.30389225 -0.48437062 0.375961
0000c0 23 c0 88 be 03 72 04 bf 2c 23 c9 be 5e ad 95 be
       -0.2670909 -0.5173647 -0.39284647 -0.2923383
0000d0 73 bf 46 bf 0c 79 f7 be c4 98 77 be 45 27 50 be
       -0.7763588 -0.4833454 -0.24179369 -0.2032748
0000e0 53 05 53 bf e8 01 98 3e 37 bd 85 bf ad af 8a bf
       -0.8243 0.29688954 -1.0448369 -1.0834862
0000f0 ee 8d 2f be d0 71 89 be e6 63 4e 3e 7c 39 29 be
       -0.17143986 -0.26844645 0.20155296 -0.16525835

fc2.weight f4 [32, 64]
000000 bf 42 ef bd 15 e6 e5 3d 9f e5 38 3f e1 3d 0d 3e
       -0.11682653 0.11225525 0.72225374 0.13793136
000010 db a3 9d 3d d1 cb 21 3d c3 7e 03 be 43 df ec 3c
       0.076972686 0.039501015 -0.12841325 0.028915053
000020 46 4e 73 3f fd 84 8b 3d 9f f9 62 3d 0c e2 81 bf
       0.9504131 0.06812475 0.05541384 -1.0147109
000030 23 97 12 3d ae c2 09 bf 10 37 09 be 0b a9 81 3d
       0.035788666 -0.5381268 -0.13399911 0.063310705
000040 60 7a d5 be f3 bc 08 3e 88 0c 3d bc d1 62 ed 3c
       -0.41694927 0.13353328 -0.011538632 0.028977783
000050 41 f5 8a bf 73 85 25 bf de b1 85 bd af 6e 5a 3d
       -1.0856096 -0.6465675 -0.06528066 0.053328212
000060 28 e8 56 3d 91 a9 7b 3f db 9c 4c 3e 20 c7 bf be
       0.052467495 0.9830561 0.1998171 -0.37456608
000070 f2 3c 36 bd b6 94 0a bf 31 42 4b 3e e2 a2 a4 be
       -0.044491716 -0.54133165 0.19849469 -0.3215552
000080 fa f9 a1 be 6b 1f d6 bc 05 63 02 bf 47 13 cb 3e
       -0.3163603 -0.026138028 -0.5093234 0.39663145
000090 b1 68 92 bd 04 3e 3c bd fa c0 83 3e 49 f5 2b be
       -0.071488746 -0.04595758 0.25733167 -0.16792788
0000a0 9f a4 a7 3e 1c 3b f3 be 08 fb 17 3e 8f 52 ed bd
       0.32742783 -0.47506034 0.14841855 -0.115880124
0000b0 4d 24 3f bf d4 a3 a4 be 3e 5d 3e bf f4 1b 48 be
       -0.74664766 -0.3215624 -0.74361026 -0.19541913
0000c0 af ed aa 3e 1a 1f 79 3e 0e 72 94 be 66 af 72 be
       0.33384463 0.2432827 -0.28993267 -0.23699722
0000d0 76 d4 57 3e 58 eb 34 3f 8b 12 45 bf c2 29 c0 bd
       0.21077141 0.70671606 -0.7698142 -0.09382965
0000e0 5c 56 6c 3e e5 42 e8 bd fa 0b 97 3d 51 15 67 bd
       0.23079818 -0.11340884 0.07375331 -0.056416813
0000f0 b6 7d 25 bf fc 7d 44 3e 9c a4 c7 bd a9 c5 87 be
       -0.64644945 0.19188684 -0.097481936 -0.2651799
000100 b8 5a 82 3e a6 af be 3d 46 af b1 be c1 94 21 bf
       0.25459838 0.09310846 -0.34704036 -0.63117605
000110 4b 21 9f bd 47 bc 1b 3e 0a 37 a9 3d 42 be 3a 3e
       -0.07770022 0.15208541 0.08262451 0.1823664
000120 9f e2 c9 bd 99 e4 43 be a0 39 de bd 39 78 b5 3d
       -0.09857678 -0.19130172 -0.10850835 0.08860821
000130 d6 a9 3a 3b 2c 93 4c be 4b 41 3b be 8b 1d 0c 3e
       0.0028482578 -0.19978017 -0.18286626 0.13683145
000140 c8 ea 73 be 46 e6 7b be 9f 87 1e 3e 99 ed 64 3b
       -0.2382003 -0.24599561 0.15481423 0.0034931658
000150 e4 55 69 3d ec 3e 0d bc c5 74 b4 bc f0 bc 6a 3e
       0.056966677 -0.008620959 -0.022028336 0.22923636
000160 8a 13 38 be 4d 66 e4 bd 8e a2 38 3e 5f c2 06 be
       -0.17976204 -0.11152325 0.1803076 -0.13160084
000170 7f 9d 09 3d 9d d1 ed bd 08 3e 21 be a9 57 92 be
       0.033597466 -0.11612246 -0.1574632 -0.28582504
000180 9b 7a a0 bd b7 b2 15 be ef 70 43 be 39 68 ea be
       -0.07835885 -0.14618956 -0.1908605 -0.4578264
000190 3d f6 32 3d 0c 28 7c be 4a fb 45 bd d0 da a9 ba
       0.043691862 -0.24624652 -0.04833535 -0.0012958888
0001a0 86 6e 09 bd e5 86 59 3d 59 1d 6d be 80 03 9c 3c
       -0.03355267 0.05310716 -0.23155726 0.019044638
0001b0 55 cf b8 3c 10 ce a1 bd da 90 f0 bd 19 de 26 be
       0.022559801 -0.079006314 -0.11746378 -0.16295661
0001c0 15 35 89 be d5 ed 83 bd 18 ab a9 be ff 50 bd be
       -0.2679831 -0.06441847 -0.33138347 -0.36975858
0001d0 f0 3f ff be 98 bb a1 be 54 cf b2 bc fc e2 32 bd
       -0.49853468 -0.31588435 -0.021827377 -0.0436735
0001e0 3e 50 f2 be b7 93 b8 bd 85 fb df 3c 45 06 4e 3e
       -0.47326845 -0.09012549 0.027341614 0.20119579
0001f0 0b 96 68 be f2 d9 34 bf b0 9a e9 bd 18 bc 10 be
       -0.22713487 -0.7064506 -0.114064574 -0.14134252
000200 69 06 9f 3d c6 8b f6 3d 1e 73 16 3e 14 05 16 3e
       0.077648945 0.120383784 0.14692351 0.14650375
000210 37 ea ed bd c1 da 88 bd f0 a1 90 3e 29 fd 1d 3f
       -0.116169386 -0.06682349 0.28248549 0.61714417
000220 e9 d2 47 3f 52 f6 5b bf 0b 96 28 3e 05 c8 be bd
       0.780562 -0.8592273 0.16463487 -0.093154944
000230 f0 d3 c0 be 5f 21 81 be f5 5e 2a be 19 19 04 3f
       -0.37661695 -0.25220773 -0.16637786 0.51600796
000240 f6 82 ff be 60 30 87 be c1 05 4e bd 10 b3 58 3d
       -0.49904603 -0.26404095 -0.050298456 0.052905142
000250 11 30 80 be ac 59 0e bf 40 24 e9 be 87 f2 c9 3e
       -0.25036672 -0.5560558 -0.4553547 0.39442846
000260 22 24 86 3e c7 ee 9e 3f 76 74 fb ba 2d 1f cc be
       0.26199442 1.2416619 -0.0019184488 -0.39867535
000270 8a a5 d3 bd 46 94 ca be ca be f4 3e 5c 74 34 bf
       -0.103343084 -0.3956625 0.4780181 -0.7049005
000280 21 ae 21 bf cc 3c 11 bf 98 d0 8f be 65 50 47 bf
       -0.63156325 -0.56733394 -0.28088832 -0.7785705
000290 c6 ec 4e 3e ef a8 35 bf e9 57 e6 be f7 fe ee be
       0.2020751 -0.709609 -0.44988945 -0.46678898
0002a0 be 03 8f bc c1 a0 2e bf f1 f7 34 be 93 33 88 3e
       -0.01745784 -0.6821404 -0.17672707 0.26601848
0002b0 8a f4 c2 be 6c 94 6a bf 65 d2 80 bf cd d2 14 bb
       -0.38077193 -0.91632724 -1.0064207 -0.0022708655
0002c0 b7 a3 06 3f 07 0c 96 3d ec 52 fd be a3 e9 bc bd
       0.5259356 0.07326513 -0.49477327 -0.0922425
0002d0 8e 11 6c 3e 2c 0a 1c 3f 43 d9 b3 be b1 43 b4 be
       0.23053572 0.6095302 -0.35126695 -0.35207894
0002e0 85 ea 32 3f 84 e4 08 be 36 e3 a5 3e 2b c7 ec 3d
       0.698891 -0.13368422 0.3239991 0.11561426
0002f0 91 4b 85 bd ac 8a 37 bd 95 22 9e be b3 bb dd be
       -0.06508554 -0.044809982 -0.3088576 -0.43307266
000300 78 4b ef bd fb 44 3a 3e 2e 1f 4b 3d 23 ea 85 be
       -0.116843164 0.18190376 0.049590282 -0.26155195
000310 f9 f2 12 bd 49 d2 f3 3c a7 22 b6 3e ef db 9c 3e
       -0.035876248 0.029763358 0.35573313 0.30636546
000320 16 dc b2 3d 00 e1 30 be 39 5d 9e 3d f8 02 b6 be
       0.08733384 -0.1727333 0.077326246 -0.3554914
000330 36 b0 4c 3d 1b 15 d0 be 33 d7 e5 bd 88 6d 85 3e
       0.049972735 -0.40641102 -0.112226866 0.26060128
000340 e7 01 88 be 52 d2 1a bf d6 10 79 bf 7d 84 c4 bd
       -0.2656395 -0.60477173 -0.97291315 -0.09595583
000350 06 56 12 bf a5 2a 5f be 71 b0 e8 bd f6 b8 48 3e
       -0.5716251 -0.21793611 -0.113617785 0.19601807
000360 67 45 b8 be 03 03 13 3f f5 ba 44 be bc 48 b7 3d
       -0.3599045 0.5742647 -0.19211943 0.0894942
000370 20 20 98 3e af ca 87 bf 11 fa 15 3f ff 2d 36 be
       0.2971201 -1.0608729 0.58584696 -0.17790984
000380 8a 0f 9e be 71 e7 a0 3e 7a 4d 48 be 65 3f ad 3f
       -0.3087123 0.31426576 -0.19560805 1.3534971
000390 67 4b a9 bd f9 6c 23 be fd 83 29 bd 12 e1 9e 3e
       -0.08266335 -0.15959539 -0.04138564 0.3103109
0003a0 a9 1c c3 3e 8c 21 24 3e 40 c5 fa bd f0 14 c9 bd
       0.38107803 0.16028422 -0.12244654 -0.09818447
0003b0 1d 35 04 bf 13 db 69 be 64 d8 71 bf 9a 73 35 3e
       -0.51643544 -0.22837476 -0.9447081 0.1771988
0003c0 f1 4f 0b 3e 00 05 30 3e a4 08 5a be e7 57 55 be
       0.13604714 0.17189407 -0.21292359 -0.20834313
0003d0 9a 4b 55 3e 0b cf 13 3f c5 21 e9 be 9e ed 94 be
       0.20829621 0.577378 -0.45533577 -0.29087538
0003e0 30 da a8 3e 30 3f 9a 3e 46 4d f0 3c 98 44 2c 3d
       0.32978964 0.30126333 0.029333722 0.042057604
0003f0 40 77 a7 3e b9 3a ff 3e 74 bf 95 be ff 04 6d 3c
       0.32708168 0.4984949 -0.2924763 0.014466523

fc2.bias f4 [32]
000000 c0 2b 8d be 9f 77 38 3f 8c b9 88 bc d2 2d ae 3e
       -0.2757244 0.7205753 -0.016690038 0.34019333
000010 4d 29 05 3f 0d 40 26 3e 7a 54 7e 3f b8 ee 74 3f
       0.52016145 0.16235371 0.9934765 0.95676756
000020 e4 d4 a5 3e 0d ef 03 be 42 27 0d 3f 61 c5 82 3e
       0.32388985 -0.1288416 0.5513803 0.25541213
000030 73 6f d1 3e 5a 0c 2e be e7 ac b3 3e de 44 0f 3f
       0.40905342 -0.16996899 0.35092852 0.5596446
000040 8a 97 a6 3e e0 e7 20 bd b2 06 0b be 85 2c 15 3c
       0.3253749 -0.039283633 -0.13576773 0.009104853
000050 48 80 65 be 94 80 92 3f 28 11 fb 3e bf 47 de bd
       -0.22412217 1.1445489 0.49036527 -0.10853528
000060 df 38 aa bc 8a a2 a3 3e 67 f5 d7 3e 6f 32 16 be
       -0.020779071 0.31959945 0.42179415 -0.14667676
000070 87 15 ed 3e 7a 5b 53 bd de 52 80 be 24 d8 eb 3e
       0.46305487 -0.05160091 -0.25063223 0.4606334

fc3.weight f4 [1, 32]
000000 63 85 f1 3e f4 f3 f0 bb 2a 3d 80 3f 8c 74 ab 3e
       0.47172078 -0.0073533 1.0018666 0.33487356
000010 c8 0d 2f be ce 37 20 3f fe 66 25 be fb 2f 3b be
       -0.17095101 0.6258515 -0.1615257 -0.18280022
000020 92 0a 85 bf 9b 91 19 3f 62 f1 27 3f 7b 22 a6 3e
       -1.0393851 0.599878 0.65602696 0.32448182
000030 63 fe e2 ba 8f 7e 5f 3f 6f 6d 12 3b 92 1c 0e be
       -0.0017318245 0.8730249 0.002234306 -0.13878086
000040 2e c6 c7 3e 6d 8d 3c 3f 0c c4 3e 3f 45 19 e4 3e
       0.39018387 0.736533 0.74517894 0.4455053
000050 54 91 e1 bd ce b5 21 be 43 4e 5f bf 38 6e 77 3f
       -0.11014047 -0.15792009 -0.8722879 0.96652555
000060 be a3 98 3e f8 38 22 3e ec 12 1d bf d4 be 84 3f
       0.29812425 0.15842044 -0.61357 1.0370736
000070 d2 cd 5c 3b bb 4a a9 3f 93 ef 2b 3f f6 9f 91 3c
       0.0033692014 1.3225931 0.67162436 0.01777647
