notebooks/DL_saved_models/MLP_Credit.pt (torch, 19494 bytes, 5 tensors)

fc1.weight f4 [64, 32]
0.39280015 0.2677283 0.1366542 -1.0101254 0.48759985 0.10118302 -0.1565496 -0.27294394
0.16591941 -0.13507831 -0.831182 -0.5586866 -0.6245328 0.44606182 -0.7870991 -0.389557
-0.8093677 -0.17047836 -0.14230193 -0.48828867 -0.40973607 0.5547397 -0.7613099 -0.3529945
0.3244001 0.6215179 -0.6731739 -0.05151119 -0.115620576 0.044498418 0.6034543 0.13624588
0.3202581 -0.1960965 0.73875827 -0.037564486 0.5083167 -0.40881288 0.08907528 0.052019376
-0.14465693 -1.0052015 0.2443342 -0.47316304 0.11262317 0.544403 -0.046274666 0.33766508
0.06804674 0.121453986 -0.008251634 -0.052601174 0.777535 -0.30519572 0.68933964 0.13668907
-0.9148009 -0.65830815 -0.028409038 -0.6527514 -0.5335035 -0.11154399 0.21834627 -0.21181305
-0.89127606 -0.15063599 0.29242322 -0.6299998 -0.36326158 -0.2388268 0.51404333 -0.3102402
0.030706996 -0.0127942 -0.11229543 0.7356053 0.23217155 0.3884992 -0.42824185 0.28944436
-0.26648486 0.32689074 -0.5235388 0.23805082 -0.5021598 -1.0920861 0.4046871 -0.2412134
-0.4508955 0.01243276 0.24801406 0.24654756 0.0009462229 0.10064372 -1.0713737 0.09909696
-0.41590726 0.5623825 0.5742005 -0.5499106 0.2299353 0.5657171 -0.27025384 -0.31308454
-0.1404947 -0.4967772 -0.09304258 -0.44888175 -0.84955436 0.5685209 -0.35022154 0.41466358
-0.41161475 -0.56721294 -0.24077074 0.5936432 -0.47252464 0.13420506 1.2231278 0.15212263
-0.8715599 -0.3564752 0.3800514 -0.34051773 0.3224152 0.3927697 -0.643828 0.2423372
-0.44292194 0.5841741 0.097527996 -0.0041761505 -0.7505962 -0.37426254 -0.6848021 -0.78944385
-0.353538 -0.59998834 -0.43110934 0.81321263 -0.24672641 0.15522093 -1.0543427 -1.1531093
-0.052036934 -0.50792515 -0.4275913 0.9594385 0.1390052 -0.4320934 0.45004717 -0.9027058
-0.8748792 0.62286174 0.4167869 -0.0596614 -0.5144627 0.055777032 -0.2963183 0.2667369
0.38975218 0.24788722 -0.44971257 -0.38123122 0.6839534 -0.2340285 -0.9501193 -1.0964015
-0.53195405 -0.18009634 0.060578074 1.4765334 -0.17482153 -0.20635489 -1.0595461 -0.5321928
-0.00011390506 -0.20659646 -0.25248387 -0.018520111 0.16544083 0.80599385 0.43248063 0.94738793
-0.00023081563 -0.20690812 -0.6404534 0.5370848 -0.11473395 -0.6435514 0.34218243 -0.5953596
0.34996197 0.0788785 -0.012929709 -0.36931536 0.2330575 0.16902696 0.18320093 -0.2679861
0.40694204 0.20426846 -0.04636392 0.92828757 -0.13840725 0.017748028 -0.9551398 0.52920014
-0.07382522 -0.2289733 0.03293394 0.87513924 0.13004577 -0.9434765 -0.7183102 0.35037413
0.7230415 0.57686806 -0.12528068 1.1397524 -0.020351969 -0.21060194 0.48363978 -0.08744614
-0.15735477 0.4987914 0.07471256 0.050413575 0.03799185 0.2979638 -0.22847567 -0.7959435
0.05602146 0.124648936 -0.85950935 0.2531735 -0.6695421 0.26569033 -2.155614 -0.92639667
-0.45417956 0.019874569 0.05180845 0.052391544 0.13545185 1.021196 -0.315744 0.39601737
-0.22797178 0.14859347 -0.17150098 0.25857407 -0.9112562 0.16545911 -0.16986665 0.09791085
00000000: 1a1d c93e af13 893e 14ef 0b3e ca4b 81bf
00000010: b0a6 f93e 0b39 cf3d 8a4e 20be 4fbf 8bbe
00000020: c7e6 293e f851 0abe 58c8 54bf 1606 0fbf
00000030: 62e1 1fbf 3762 e43e 547f 49bf 0474 c7be
00000040: b932 4fbf e191 2ebe 99b7 11be f900 fabe
00000050: edc8 d1be 6c03 0e3f 35e5 42bf b2bb b4be
00000060: c517 a63e cc1b 1f3f 2055 2cbf 66fd 52bd
00000070: 7bca ecbd f943 363d fb7b 1a3f 0a84 0b3e
00000080: dff8 a33e 85cd 48be 431f 3d3f 38dd 19bd
00000090: 0b21 023f ec4f d1be 1a6d b63d 4512 553d
000000a0: f220 14be 71aa 80bf bf32 7a3e 6d42 f2be
000000b0: faa6 e63d ff5d 0b3f 818a 3dbd 70e2 ac3e
000000c0: 175c 8b3d debc f83d dd31 07bc 5474 57bd
000000d0: 890c 473f 9d42 9cbe 9078 303f 38f8 0b3e
000000e0: 6430 6abf e286 28bf 12ba e8bc b71a 27bf
000000f0: af93 08bf 2d71 e4bd 2a96 5f3e 85e5 58be
00000100: ab2a 64bf 5240 1abe 7fb8 953e ab47 21bf
00000110: 6cfd b9be 038f 74be 5898 033f ced7 9ebe
00000120: 3d8d fb3c c49e 51bc 25fb e5bd a150 3c3f
00000130: 61be 6d3e 5ee9 c63e 8442 dbbe 0d32 943e
00000140: b470 88be 395e a73e a406 06bf 98c3 733e
00000150: 8b8d 00bf 7ac9 8bbf 2633 cf3e a500 77be
00000160: c6db e6be c6b2 4b3c 66f7 7d3e f776 7c3e
00000170: f20b 783a 4b1e ce3d c622 89bf 59f3 ca3d
00000180: ccf1 d4be 4df8 0f3f cefe 123f f1c6 0cbf
00000190: 2974 6b3e d6d2 103f b65e 8abe 9e4c a0be
000001a0: d8dd 0fbe 9559 febe 1c8d bebd d4d3 e5be
000001b0: 657c 59bf 968a 113f 3d50 b3be c94e d43e
000001c0: 2bbf d2be de34 11bf 9b8c 76be 00f9 173f
000001d0: c0ee f1be 0d6d 093e 748f 9c3f 09c6 1b3e
000001e0: 8d1e 5fbf eb83 b6be 1996 c23e 5758 aebe
000001f0: 9b13 a53e 1c19 c93e e9d1 24bf 3e27 783e
00000200: aac6 e2be 6f8c 153f c2bc c73d 17d8 88bb
00000210: 1327 40bf 579f bfbe 314f 2fbf fe18 4abf
00000220: ef02 b5be d698 19bf 5dba dcbe b42e 503f
00000230: d9a5 7cbe 3cf2 1e3e b4f4 86bf 1699 93bf
00000240: ae24 55bd 6207 02bf 3fed dabe c39d 753f
00000250: 6157 0e3e 593b ddbe 956c e63e ba17 67bf
00000260: 15f8 5fbf de73 1f3f 1865 d53e 835f 74bd
00000270: d4b3 03bf 7576 643d 08b7 97be bd91 883e
00000280: 998d c73e 26d6 7d3e ba40 e6be bd30 c3be
00000290: 9217 2f3f 2ba5 6fbe 053b 73bf e256 8cbf
000002a0: 242e 08bf 2d6b 38be b720 783d 0cff bc3f
000002b0: 6a04 33be b24e 53be 359f 87bf ca3d 08bf
000002c0: 50e0 eeb8 068e 53be 9145 81be 7db7 97bc
000002d0: 5269 293e 9d55 4e3f 1a6e dd3e 0488 723f
000002e0: 1907 72b9 b9df 53be c1f4 23bf 647e 093f
000002f0: a2f9 eabd c9bf 24bf 8932 af3e 7d69 18bf
00000300: 372e b33e 0d8b a13d 21d7 53bc e716 bdbe
00000310: a0a6 6e3e 6715 2d3e 0699 3b3e 7935 89be
00000320: b55a d03e c02b 513e 18e8 3dbd 41a4 6d3f
00000330: a1ba 0dbe 5064 913c 0b84 74bf a979 073f
00000340: ad31 97bd fa77 6abe bde5 063d 2009 603f
00000350: b82a 053e ad87 71bf 2de3 37bf 3d64 b33e
00000360: 3f19 393f a0ad 133f 9449 00be 68e3 913f
00000370: 2cb9 a6bc 09a8 57be a29f f73e f616 b3bd
00000380: 9c21 21be 9661 ff3e e602 993d 777e 4e3d
00000390: 589d 1b3d b68e 983e 87f5 69be f4c2 4bbf
000003a0: c276 653d f147 ff3d ce08 5cbf f59f 813e
000003b0: 1c67 2bbf 9008 883e 94f5 09c0 5528 6dbf
000003c0: 398a e8be fecf a23c 1935 543d 8498 563d
000003d0: e4b3 0a3e 8db6 823f 33a9 a1be cac2 ca3e
000003e0: 6f71 69be e328 183e f49d 2fbe d263 843e
000003f0: 1648 69bf 1d6e 293e 86f1 2dbe 7c85 c83d

fc1.bias f4 [64]
0.8982481 -0.90572757 -0.9023342 -0.3995704 0.05338355 -0.18426688 0.17642537 -0.39614528
0.19772898 -0.97800314 -0.90512663 -0.5978409 -0.3733454 0.22813791 -0.19770387 0.094915085
-0.44776827 0.9090255 -0.9885939 -0.5316703 -0.74928266 0.9336892 -0.0032450163 0.5967433
-0.91232055 0.4941362 -0.6395662 -0.9195126 0.22813927 -0.5203062 0.28536823 -0.8944445
0.042585064 0.49453762 -0.3740976 -0.66644335 -0.64707357 -0.033558864 0.89631903 0.6792329
-0.8436142 0.14847396 0.6231638 -0.6833395 -0.68810123 -0.6923301 0.28012162 -0.51516324
-0.9158003 0.30343458 -0.8066322 1.2401872 -0.7191972 0.4924134 0.5458607 -0.12551609
-0.58922344 -0.60567874 0.22391036 -1.0472269 0.35619763 -0.12943025 0.470649 0.056688897
00000000: 96f3 653f c3dd 67bf 60ff 66bf 7e94 ccbe
00000010: b6a8 5a3d 75b0 3cbe daa8 343e 8ed3 cabe
00000020: 7779 4a3e 6a5e 7abf 61b6 67bf 1a0c 19bf
00000030: 2127 bfbe fc9c 693e e272 4abe d762 c23d
00000040: e241 e5be e5b5 683f 7d14 7dbf 8b1b 08bf
00000050: fdd0 3fbf 4106 6f3f 57aa 54bb 2bc4 183f
00000060: d78d 69bf 6cff fc3e 9cba 23bf 2e65 6bbf
00000070: 579d 693e ca32 05bf c91b 923e 51fa 64bf
00000080: ad6d 2e3d 0934 fd3e b889 bfbe 089c 2abf
00000090: 9da6 25bf 0575 09bd 2a75 653f 35e2 2d3f
000000a0: 1af7 57bf 8f09 183e aa87 1f3f 56ef 2ebf
000000b0: 6727 30bf 8c3c 31bf 1a6c 8f3e bde1 03bf
000000c0: e371 6abf c75b 9b3e 737f 4ebf 74be 9e3f
000000d0: 4f1d 38bf 9c1d fc3e 87bd 0b3f 4a87 00be
000000e0: 59d7 16bf c30d 1bbf c248 653e 880b 86bf
000000f0: 895f b63e 5d89 04be e8f8 f03e 9e32 683d

fc2.weight f4 [32, 64]
-1.135479 -0.08679625 0.9445122 0.04001034 -0.48968256 -0.48732945 -0.5186109 0.2880542
-0.514146 0.04988523 0.46978346 0.72588295 -0.34636012 0.1116453 0.89401287 -0.5327512
0.5634856 -0.5524336 0.0295132 0.51121193 0.07040683 -1.0760463 -0.62925833 -0.48810574
1.1209831 -0.0071877195 0.58098024 0.3173492 0.36955252 -0.48880476 0.51582646 0.88167596
-0.71090037 -0.006521881 0.24156831 0.029579159 0.6342851 -0.2847388 -0.41508374 -1.5289557
1.0466245 -0.039012607 -0.6929664 0.26701537 0.29708168 -0.015621271 -0.21421887 0.49230173
1.4700922 -0.6915867 0.13237281 -0.82415503 0.89567274 -0.795072 -0.75917214 -0.53130484
0.28845283 1.2179308 -0.45040256 1.1870435 -0.93668735 -1.0938967 -0.6991761 0.7054002
-0.5324885 0.8722642 0.73604804 -0.6271416 -0.10565408 -0.68918455 -0.4941405 -0.21420686
-0.46924368 -0.12941834 0.56219596 0.21966709 -0.83437717 0.365281 -1.0555271 -0.7745824
0.5027711 -0.22398303 0.8395171 0.36587098 0.17211832 -0.43722153 -0.4137025 -0.19251072
0.5310989 -0.40169105 1.2600394 0.5408289 0.17680138 -0.4188889 -1.0538635 0.9151923
0.111450784 -0.63627946 -0.33768088 0.14760672 1.4836472 -1.1519222 0.2640597 0.35762486
-0.04899174 -0.05247835 0.363352 -0.011290966 -0.26882964 0.455134 0.19224966 -0.124538146
-0.46431565 -0.70045835 0.97661537 -1.5753279 0.45564017 -0.07954943 -0.13009538 -0.16633858
0.89521205 0.41676778 -0.035440184 -0.09016051 -0.87332755 0.31669074 -0.6887874 -1.0052167
-0.046221603 -0.17948405 -0.25030378 0.40768173 0.31475756 0.58157945 0.3057024 0.83945125
0.2422253 -0.09232946 -1.3965899 -0.1860308 1.5641894 0.17403258 -0.96457404 0.6904788
-0.20029405 -0.427383 -0.2473688 -0.32156402 -0.35581395 -0.42521045 0.13624178 -0.092104286
-0.052104104 0.06788665 -0.67410785 -1.2812856 0.21684813 1.069921 0.7671358 -0.053415477
0.87324005 -0.25056648 0.79144704 0.3040094 -0.22882877 0.61927676 0.28382155 0.050495584
0.3857062 -0.04904968 -0.05840733 0.20961104 -0.05046761 -0.16224796 -0.14286344 -0.33419654
-0.62429965 0.18124619 -1.190076 0.3173274 -0.7299884 0.17856213 -0.24764992 1.5367216
-0.35761166 -1.4683341 0.7212003 -0.92146623 0.34535888 0.334418 -0.0089926 0.34707096
-0.5480895 0.4220312 0.28406075 -0.3750873 -0.54166406 -1.4659191 -1.3096532 0.247658
-0.81124675 0.75809747 -0.3227365 0.5072857 -0.13249451 0.027620155 0.13050576 -1.1609756
0.48268074 0.35894486 1.3084806 0.08283856 0.64554286 0.07779825 -0.58551335 -0.5505879
0.24745978 -0.60159963 0.2527528 -0.12642936 -1.072597 -0.2315255 -1.458162 -0.44725826
-0.49575272 -0.061810758 -0.3824947 0.31032115 0.6950581 -0.5829062 -0.18337533 -0.31771275
0.25297457 -1.0705009 0.05326721 0.5178376 0.3480746 0.54503244 -1.0377563 0.6770743
0.90757203 -0.6799746 0.8725309 -0.9684801 0.70987374 0.48316553 -0.8493689 -0.5367282
0.4318678 -0.1394758 -0.09751967 1.4933902 -0.068695106 0.27409172 0.04809503 -1.0408525
00000000: 6057 91bf 3bc2 b1bd 8dcb 713f e2e1 233d
00000010: acb7 fabe 3f83 f9be afc3 04bf d77b 933e
00000020: 129f 03bf 7454 4c3d 7587 f03e 77d3 393f
00000030: 1d56 b1be 4ba6 e43d 07de 643f 6262 08bf
00000040: 9840 103f 4a6c 0dbf abc5 f13c c9de 023f
00000050: 7531 903d e3bb 89bf 1317 21bf ffe8 f9be
00000060: 607c 8f3f f686 ebbb 1fbb 143f 987b a23e
00000070: fd35 bd3e 9e44 fabe 340d 043f 84b5 613f
00000080: 91fd 35bf 81b5 d5bb af5d 773e fe4f f23c
00000090: 8260 223f 49c9 91be db85 d4be d2b4 c3bf
000000a0: cbf7 853f afcb 1fbd 3f66 31bf 3db6 883e
000000b0: 171b 983e 5cf0 7fbc 315c 5bbe f90e fc3e
000000c0: fb2b bc3f d30b 31bf bd8c 073e d3fb 52bf
000000d0: cf4a 653f d789 4bbf 1b59 42bf 9803 08bf
000000e0: 17b0 933e 28e5 9b3f 2a9b e6be 0bf1 973f
000000f0: beca 6fbf cf04 8cbf 34fd 32bf 1c95 343f
00000100: 2b51 08bf b54c 5f3f a56d 3c3f 5a8c 20bf
00000110: 2b61 d8bd 666e 30bf fcff fcbe 0b59 5bbe
00000120: b540 f0be 3e86 04be 13ec 0f3f 69f0 603e
00000130: be99 55bf 1c06 bb3e 831b 87bf 084b 46bf
00000140: 9bb5 003f cf5b 65be 98ea 563f 7153 bb3e
00000150: c93f 303e 80db dfbe d0d0 d3be 8821 45be
00000160: 19f6 073f 73aa cdbe f948 a13f c373 0a3f
00000170: 6c0b 353e 9b78 d6be 00e5 86bf 0b4a 6a3f
00000180: 4f40 e43d 36e3 22bf 82e4 acbe 3726 173e
00000190: 27e8 bd3f 3072 93bf d532 873e 9b1a b73e
000001a0: 90ab 48bd 8af3 56bd 4609 ba3e befd 38bc
000001b0: 0aa4 89be 5307 e93e 18dd 443e db0d ffbd
000001c0: c8ba edbe 3d51 33bf 7703 7a3f 58a4 c9bf
000001d0: ab49 e93e d0ea a2bd b937 05be a954 2abe
000001e0: 9e2c 653f 9662 d53e ba29 11bd 13a6 b8bd
000001f0: 6592 5fbf 4a25 a23e 5f54 30bf f1aa 80bf
00000200: dd52 3dbd abca 37be d127 80be a9bb d03e
00000210: e727 a13e 64e2 143f 0685 9c3e 47e6 563f
00000220: e909 783e 3a17 bdbd 75c3 b2bf dc7e 3ebe
00000230: 5c37 c83f 9935 323e 53ee 76bf 38c3 303f
00000240: e219 4dbe f2d1 dabe 3f4e 7dbe 0aa4 a4be
00000250: 3f2d b6be 2fb5 d9be f782 0b3e 2ca1 bcbd
00000260: 1d6b 55bd 2808 8b3d 5592 2cbf 2b01 a4bf
00000270: 700d 5e3e 2cf3 883f 0363 443f 30ca 5abd
00000280: a98c 5f3f 404a 80be 469c 4a3f 1fa7 9b3e
00000290: 1752 6abe ec88 1e3f 0f51 913e 75d4 4e3d
000002a0: 487b c53e 51e8 48bd 863c 6fbd 47a4 563e
000002b0: 20b7 4ebd 5424 26be cb4a 12be cf1b abbe
000002c0: 1ad2 1fbf 9a98 393e 6954 98bf bd78 a23e
000002d0: 85e0 3abf fed8 363e f197 7dbe 4bb3 c43f
000002e0: e018 b7be 5ff2 bbbf 95a0 383f 36e5 6bbf
000002f0: e1d2 b03e d638 ab3e b355 13bc 49b3 b13e
00000300: 984f 0cbf 7914 d83e 6970 913e 710b c0be
00000310: 7faa 0abf 3da3 bbbf b7a2 a7bf 0f9a 7d3e
00000320: dead 4fbf ad12 423f b83d a5be 7add 013f
00000330: a4ac 07be aa43 e23c 4da3 053e d99a 94bf
00000340: ee21 f73e 9fc7 b73e 4b7c a73f 43a7 a93d
00000350: 4c42 253f b054 9f3d 34e4 15bf 54f3 0cbf
00000360: 1966 7d3e 6f02 1abf d168 813e b376 01be
00000370: dc4a 89bf 0515 6dbe 0da5 babf 09ff e4be
00000380: 4dd3 fdbe 472d 7dbd 58d6 c3be 6ae2 9e3e
00000390: 54ef 313f 5739 15bf bec6 3bbe 3fab a2be
000003a0: e285 813e 2c06 89bf b82e 5a3d 0191 043f
000003b0: d536 b23e 3f87 0b3f 33d5 84bf be54 2d3f
000003c0: a456 683f d112 2ebf 2f5e 5f3f 50ee 77bf
000003d0: 49ba 353f 7961 f73e 3d70 59bf 0567 09bf
000003e0: c71d dd3e bed2 0ebe 65b8 c7bd 6927 bf3f
000003f0: 05b0 8cbd c055 8c3e 4bff 443d a83a 85bf

fc2.bias f4 [32]
-1.013626 -1.2178441 0.6055038 -0.25499982 -0.5685187 1.5348707 -1.5760341 0.9207701
-0.81391746 0.82275784 -1.3910418 1.3027898 1.2477597 -1.3995105 1.2378596 -1.5254319
-0.78785557 0.24732289 -0.816892 1.4179472 -1.1233107 0.47602364 1.533753 1.4599125
-0.79820484 0.9152857 -1.0171132 -0.9690223 0.98929673 -1.54523 1.1812115 -0.82133955
00000000: 7fbe 81bf 51e2 9bbf 4c02 1b3f 568f 82be
00000010: 718a 11bf a576 c43f 7cbb c9bf 97b7 6b3f
00000020: e55c 50bf 42a0 523f a80d b2bf d1c1 a63f
00000030: 97b6 9f3f 2923 b3bf 2f72 9e3f 5a41 c3bf
00000040: e7b0 49bf 3642 7d3e d61f 51bf 4b7f b53f
00000050: a5c8 8fbf 5fb9 f33e 0552 c43f 6ade ba3f
00000060: 2757 4cbf 2a50 6a3f c430 82bf d811 78bf
00000070: 8d42 7d3f 19ca c5bf f031 973f 4f43 52bf

fc3.weight f4 [1, 32]
-1.1439254 -1.5329651 0.13877383 -1.6909007 -1.3065705 0.23040399 -0.7292033 0.5133321
-1.7499627 0.107317224 -1.0962223 0.8884573 0.73878664 -1.5116973 0.16568254 -1.1032112
-1.2756168 0.02964064 -0.60351664 0.16443607 -0.67856205 0.0972637 0.1750059 0.60330933
-1.2669915 0.9325522 -0.78375983 -0.84366286 0.30685037 -0.84559226 0.29165927 -1.6819111
00000000: 266c 92bf 3338 c4bf ba1a 0e3e 6f6f d8bf
00000010: b43d a7bf 06ef 6b3e 11ad 3abf bc69 033f
00000020: c7fe dfbf 22c9 db3d 0351 8cbf f071 633f
00000030: 1f21 3d3f 4c7f c1bf afa8 293e 0636 8dbf
00000040: 6947 a3bf edd0 f23c 1180 1abf ee61 283e
00000050: 3eb6 2dbf 3132 c73d bf34 333e 7b72 1a3f
00000060: c72c a2bf bebb 6e3f 7ca4 48bf 4afa 57bf
00000070: 7e1b 9d3e bc78 58bf 5d54 953e dd48 d7bf
