notebooks/DL_saved_models/RNN_Credit.pt (torch, 11174 bytes, 5 tensors)

rnn.weight_ih_l0 f4 [32, 32]
-0.4189974 -0.4758039 0.59739524 0.14739293 -0.14040181 1.2836487 -0.044174507 1.2807001
-2.2049313 -2.1835732 -0.8981544 -0.19035003 -1.1455772 1.6090703 -2.1055999 -0.14345783
0.34267047 -0.056763694 1.8222756 -0.8360447 -0.44067588 0.9022968 0.4509878 -0.016357107
-0.28012872 1.8932738 0.043750905 0.115289964 1.8813184 1.2112025 -0.5540481 1.4427522
0.096448354 -0.6956391 -0.7927938 1.0775803 -1.0356078 -0.98833364 -0.651193 -0.4661615
0.9513624 1.152954 0.10315938 -1.2724223 -0.15707648 -1.1700569 0.60207593 -0.8837738
0.20991129 -0.29014423 -1.1581511 -0.44222033 0.1632661 0.41668415 0.57305163 0.03499805
-0.455084 0.6469982 2.2720263 -1.3808281 -1.4998641 0.005973688 0.15332705 0.055100024
0.10866794 0.016076861 -0.6012184 1.786951 1.7887256 -0.25905475 1.2956634 0.061551403
-0.12896244 -1.0396042 0.4228973 -0.18144172 -0.5954377 0.6013794 -0.039611675 -0.6267394
-0.31995746 -0.47229248 0.3103025 -0.49648902 -0.78157145 -2.1284902 -2.7823224 0.40232116
-1.7858889 -1.4276837 1.1291555 0.115668446 -0.11063586 0.9018545 0.097545214 0.9045825
-1.6632199 -0.7789862 -0.9120015 -1.3691461 -1.3861752 -0.5306583 0.049080197 -0.8840816
0.8976298 1.4237179 -0.22836868 -0.41908792 0.007868263 0.15577699 0.59686536 0.15357572
0.12602271 0.8213396 0.36393547 -0.0025253275 2.129753 0.113378905 0.9342384 -1.8658764
1.0226821 -0.48043448 -0.38074297 1.9959334 1.4276128 0.21734077 -1.4664602 0.1252066
-0.21900018 -0.6847223 0.4578971 -0.4666452 -0.5515718 -0.14199938 0.5848928 0.6856623
0.28525275 -0.85564846 0.73585594 -0.43945327 -0.07308175 -1.5054078 1.2607021 0.75544965
0.3886743 -0.20607656 -0.04388898 -0.48893985 1.0830795 -0.31498152 -0.015700404 0.9756087
-0.832033 -0.4871783 -0.5412732 -1.3893797 -0.32904834 -0.053993173 -0.29618448 0.042520583
0.3090853 1.1394291 0.72918427 -1.8853505 -0.036667228 -0.95990914 0.4979667 -0.39006454
1.646982 0.33776015 0.6996712 0.13742445 -0.31430504 -0.2581182 1.928265 0.5594055
0.15417495 0.86177254 -0.3729865 -0.9222622 1.1958333 1.1106203 0.16835032 -0.9226347
0.4490053 1.7274963 0.18393317 0.83638525 4.7951946 -0.19947529 0.5484474 -0.15382507
0.15757579 0.3919264 -0.27659953 0.2831167 -0.2905555 -0.34119222 0.08777966 -0.4577964
0.53474486 0.40651274 -1.4104034 -0.16474758 -0.08596847 0.3813938 -2.2217314 0.15877022
-0.5784123 -0.7461739 0.17208897 0.45889112 0.8164681 -0.13154282 -0.47044224 0.06128532
0.28509992 0.034323703 -0.249199 1.835554 -0.050472513 -0.48009068 -0.1372435 -0.4027233
-0.016275367 -0.8743673 0.61770946 1.3933939 -1.0790038 -0.36307883 -0.1682094 0.9524109
-0.27658096 0.6122026 1.0727048 -0.7233554 0.48489505 0.28801638 0.47396165 0.49096045
0.6217534 1.3196228 0.3519052 -0.21333633 0.24088968 -1.3140897 -0.24340461 0.052710675
0.01972266 0.51531786 0.012809753 0.62933666 0.080743276 0.82367516 -0.1914247 0.70938706
00000000: d486 d6be 929c f3be e5ee 183f 2cee 163e
00000010: 7ec5 0fbe 9a4e a43f 54f0 34bd fbed a33f
00000020: 981d 0dc0 aabf 0bc0 72ed 65bf 1eeb 42be
00000030: 46a2 92bf 04f6 cd3f 26c2 06c0 9ce6 12be
00000040: 8172 af3e 0c81 68bd 5440 e93f 0707 56bf
00000050: 45a0 e1be ecfc 663f dfe7 e63e 57ff 85bc
00000060: 086d 8fbe cc56 f23f 2634 333d 251d ec3d
00000070: 0bcf f03f af08 9b3f 19d6 0dbf 1bac b83f
00000080: b786 c53d 6715 32bf 89f4 4abf 27ee 893f
00000090: cc8e 84bf 6f03 7dbf 96b4 26bf b8ac eebe
000000a0: 7c8c 733f ff93 933f 3a45 d33d bcde a2bf
000000b0: a8d8 20be 6dc4 95bf a621 1a3f 003f 62bf
000000c0: fcf2 563e c98d 94be 4c3e 94bf b46a e2be
000000d0: 3b2f 273e a057 d53e 83b3 123f 1e5a 0f3d
000000e0: c500 e9be ada1 253f e168 1140 fabe b0bf
000000f0: 8cfb bfbf edbe c33b c401 1d3e 90b0 613d
00000100: 4c8d de3d 9fb3 833c 73e9 19bf cfba e43f
00000110: f6f4 e43f d3a2 84be 4cd8 a53f 531d 7c3d
00000120: bb0e 04be c011 85bf ff85 d83e dccb 39be
00000130: 9b6e 18bf 00f4 193f da3f 22bd fe71 20bf
00000140: 77d1 a3be 52d0 f1be f8df 9e3e cf33 febe
00000150: 1115 48bf 2f39 08c0 9211 32c0 0afd cd3e
00000160: 0298 e4bf 57be b6bf 2b88 903f 94e3 ec3d
00000170: 0e95 e2bd f0df 663f c9c5 c73d b892 673f
00000180: 64e4 d4bf a46b 47bf ee78 69bf 2e40 afbf
00000190: 306e b1bf 39d9 07bf 5108 493d 2c53 62bf
000001a0: 11cb 653f 633c b63f 7bd9 69be b192 d6be
000001b0: e3e9 003c 0184 1f3e 2bcc 183f f442 1d3e
000001c0: 190c 013e 5043 523f c055 ba3e f77f 25bb
000001d0: e04d 0840 3333 e83d 3f2a 6f3f 0ad5 eebf
000001e0: 3fe7 823f 82fb f5be bef0 c2be bf7a ff3f
000001f0: 04bc b63f 948e 5e3e f8b4 bbbf 2936 003e
00000200: 9541 60be f649 2fbf 7d71 ea3e 1fec eebe
00000210: cf33 0dbf 4968 11be 89bb 153f 9187 2f3f
00000220: a60c 923e c70b 5bbf 0e61 3c3f 0500 e1be
00000230: e2ab 95bd 34b1 c0bf b05e a13f 2665 413f
00000240: 5100 c73e bc05 53be eec4 33bd 5356 fabe
00000250: 59a2 8a3f 4245 a1be 229e 80bc 7ec1 793f
00000260: 1d00 55bf 6f6f f9be e190 0abf 32d7 b1bf
00000270: 0679 a8be f227 5dbd 7ea5 97be 102a 2e3d
00000280: 6e40 9e3e d0d8 913f d2ab 3a3f 2a53 f1bf
00000290: 6030 16bd 9bbc 75bf 7ef5 fe3e 8ab6 c7be
000002a0: 4ed0 d23f e6ee ac3e a71d 333f ffb8 0c3e
000002b0: 97ec a0be 1228 84be 63d1 f63f 3335 0f3f
000002c0: 0ae0 1d3e 209d 5c3f 16f8 bebe 6019 6cbf
000002d0: 1111 993f ce28 8e3f 0764 2c3e ca31 6cbf
000002e0: 06e4 e53e 991e dd3f fa58 3c3e 581d 563f
000002f0: 3c72 9940 4043 4cbe 0c67 0c3f 5284 1dbe
00000300: 8c5b 213e 94aa c83e 749e 8dbe acf4 903e
00000310: b1c3 94be bfb0 aebe d3c5 b33d 4a64 eabe
00000320: 0ae5 083f 7022 d03e 1988 b4bf 97b3 28be
00000330: 3d10 b0bd 0c46 c33e d930 0ec0 a994 223e
00000340: d412 14bf 4105 3fbf 1738 303e c7f3 ea3e
00000350: 0e04 513f 29b3 06be cedd f0be 5106 7b3d
00000360: 9ef8 913e 0397 0c3d 062e 7fbe 6ff3 ea3f
00000370: 44bc 4ebd 72ce f5be 8f89 0cbe c031 cebe
00000380: eb53 85bc 89d6 5fbf 3522 1e3f bb5a b23f
00000390: cc1c 8abf 78e5 b9be 163f 2cbe 33d1 733f
000003a0: 059c 8dbe 4fb9 1c3f 644e 893f d22d 39bf
000003b0: 2a44 f83e e276 933e 1aab f23e 2b5f fb3e
000003c0: 3b2b 1f3f 66e9 a83f eb2c b43e d774 5abe
000003d0: c9ab 763e 1734 a8bf 0f3f 79be 26e7 573d
000003e0: 6a91 a13c dfeb 033f 00e0 513c 351c 213f
000003f0: bb5c a53d 60dc 523f d604 44be 649a 353f

rnn.weight_hh_l0 f4 [32, 32]
-0.12082953 0.010617971 -0.07625039 0.07839699 0.03758816 -0.0100211715 0.11730869 0.047427762
0.04320583 0.034520376 0.008540595 -0.14499338 0.009950302 -0.10864494 -0.15373793 -0.09537701
-0.090090044 -0.026007745 0.13485503 0.1526166 -0.15382777 -0.03363051 -0.16396192 -0.11452727
-0.070005305 -0.12732308 -0.14923948 0.11504106 -0.0930226 0.15925224 0.09374709 -0.1458531
0.14898738 -0.012427336 0.024456277 -0.049744744 -0.17378871 -0.029853687 -0.06148066 -0.01610783
0.16166721 0.060896717 0.14731759 -0.14599481 -0.06567037 0.14295296 -0.1599335 0.06455525
-0.10382543 0.120309316 -0.09725539 -0.061311103 -0.13639258 -0.13427073 -0.0055621616 -0.16136627
0.12170589 -0.069682755 -0.11651024 0.035407063 -0.03484925 -0.13449787 -0.05995056 0.14912596
0.081677176 -0.12410264 -0.09838469 0.15766837 0.09075122 0.17413215 0.07656822 -0.11830772
-0.12676406 -0.1440374 0.06536502 -0.1375296 0.0925545 0.055572473 -0.014652162 0.04586951
-0.055252284 0.17215124 -0.14994834 -0.08588337 -0.003063212 -0.026539806 0.0046974346 -0.11966154
0.0036192553 0.14087656 -0.14104186 -0.11892178 -0.17156072 -0.02019032 -0.06337259 0.05046242
-0.119239986 0.005253478 0.16736183 -0.054849084 -0.004692377 0.04127487 0.115177535 -0.16707693
0.10867927 -0.11237614 0.018509442 -0.08732176 0.017669117 -0.12868842 0.12068394 -0.11790292
0.09675064 0.12570426 -0.09338694 -0.1306126 -0.094709806 0.16084436 -0.02590891 -0.13763326
-0.015107621 0.15208533 0.12622905 -0.11658297 0.04440849 -0.14683513 0.059713107 0.027642684
0.16124094 0.17242958 0.06875143 0.1706928 0.045214653 0.10093881 0.06427034 0.122495934
-0.011211082 -0.064738445 0.08306025 0.040880356 0.14319138 0.10218509 -0.10925622 -0.02989615
0.0664452 0.12575942 0.15626408 0.038610622 0.07745098 -0.0927222 0.14142258 -0.041283194
0.12638152 -0.14439952 -0.064664245 0.022698859 -0.1505415 -0.15407473 -0.04890756 -0.13383645
0.14811243 -0.031385534 -0.15725185 0.08010325 -0.17060456 0.04025203 0.0115857255 0.07662055
-0.12286816 -0.16475378 -0.1407781 -0.028475106 0.13700117 0.0801699 0.019837447 0.060253978
0.0036635515 0.006452514 0.06835395 0.12698446 0.059275433 -0.01545015 0.021951154 -0.12054909
0.10849159 0.12353028 0.008047983 0.15581274 0.12171428 -0.14037938 -0.024503756 0.11797895
0.061587546 0.0017255341 0.11686274 0.019342074 -0.095625974 0.08096563 0.15687661 0.15589479
-0.071225055 0.1750321 0.098492466 0.14895728 -0.13182355 -0.007915873 0.080957286 0.023340987
-0.14034547 -0.15782934 0.0011970547 0.023366697 0.07653887 0.11233302 0.0152467275 -0.15689413
-0.114013374 0.0104932375 -0.15417616 0.06473033 0.031042187 -0.026003003 0.14199309 -0.00612282
-0.072538726 -0.16153756 0.023763109 -0.005171945 -0.053148143 -0.028765455 -0.17520504 -0.056355078
0.029099911 -0.097649716 0.069884345 -0.16990939 -0.16446619 -0.09829507 0.1431454 0.12634958
0.15556465 0.04373576 -0.07126697 0.028829161 -0.0540869 -0.13957524 -0.016865356 -0.11256549
-0.052152764 0.14181754 -0.0050285403 0.01704857 0.026070965 -0.0645178 -0.014558364 -0.062181078
00000000: 7975 f7bd 00f7 2d3c 2a29 9cbd 9a8e a03d
00000010: 0bf6 193d d72f 24bc 8a3f f03d 9d43 423d
00000020: 99f8 303d 3d65 0d3d daed 0b3c 2579 14be
00000030: 9706 233c 3d81 debd 7a6d 1dbe 0655 c3bd
00000040: 2181 b8bd 320e d5bc 7017 0a3e 8747 1c3e
00000050: 0785 1dbe 25c0 09bd a2e5 27be 468d eabd
00000060: f15e 8fbd fb60 02be 3cd2 18be a69a eb3d
00000070: a282 bebd 0513 233e 79fe bf3d 845a 15be
00000080: 2690 183e 069c 4bbc 8858 c83c 25c1 4bbd
00000090: abf5 31be b88f f4bc 25d3 7bbd 91f4 83bc
000000a0: 178c 253e d66e 793d 6cda 163e aa7f 15be
000000b0: 307e 86bd 4362 123e 9cc5 23be 8b35 843d
000000c0: 6da2 d4bd bb64 f63d d52d c7bd 5a21 7bbd
000000d0: 7faa 0bbe 447e 09be cb42 b6bb 333d 25be
000000e0: f040 f93d d5b5 8ebd ec9c eebd ff06 113d
000000f0: 16be 0ebd cfb9 09be b88e 75bd 7ab4 183e
00000100: 5d46 a73d 8629 febd ea7d c9bd d173 213e
00000110: c7db b93d b34f 323e cdcf 9c3d 514b f2bd
00000120: 70ce 01be 8a7e 13be 18de 853d 8fd4 0cbe
00000130: 378d bd3d f69f 633d 9f0f 70bc abe1 3b3d
00000140: 3850 62bd 6a48 303e 0f8c 19be 9fe3 afbd
00000150: 2bc0 48bb 026a d9bc f0ec 993b 1c11 f5bd
00000160: 0731 6d3b f241 103e 476d 10be 438d f3bd
00000170: 9dad 2fbe 2c66 a5bc 7dc9 81bd afb1 4e3d
00000180: 1834 f4bd 5e25 ac3b e660 2b3e 6fa9 60bd
00000190: 83c2 99bb d70f 293d 33e2 eb3d 3716 2bbe
000001a0: 3d93 de3d 7625 e6bd 1da1 973c c0d5 b2bd
000001b0: d3be 903c e6c6 03be 2429 f73d 1677 f1bd
000001c0: 3325 c63d 9eb8 003e a741 bfbd 4fbf 05be
000001d0: 37f7 c1bd 62b4 243e ec3e d4bc bcef 0cbe
000001e0: f585 77bc 42bc 1b3e 3042 013e 0dc3 eebd
000001f0: ade5 353d f35b 16be bb95 743d e972 e23c
00000200: 581c 253e 6191 303e 8dcd 8c3d 18ca 2e3e
00000210: 0033 393d 02b9 ce3d 2ba0 833d 26df fa3d
00000220: b0ae 37bc 9795 84bd 7e1b aa3d 2972 273d
00000230: c3a0 123e 6b46 d13d bac1 dfbd c5e8 f4bc
00000240: 6c14 883d 14c7 003e b103 203e 2c26 1e3d
00000250: 9f9e 9e3d 23e5 bdbd 15d1 103e 9118 29bd
00000260: 286a 013e 78dd 13be b06e 84bd f5f2 b93c
00000270: 8d27 1abe c4c5 1dbe 4b53 48bd 6c0c 09be
00000280: c9aa 173e 1e8e 00bd a106 21be 2c0d a43d
00000290: f6b2 2ebe 50df 243d 0ed2 3d3c 3ceb 9c3d
000002a0: 4da2 fbbd 37b5 28be 2228 10be a044 e9bc
000002b0: 094a 0c3e 1e30 a43d 2482 a23c e0cc 763d
000002c0: 3218 703b 9c6f d33b 28fd 8b3d 3708 023e
000002d0: ccca 723d a022 7dbc e8d2 b33c 71e2 f6bd
000002e0: d730 de3d 72fd fc3d b0db 033c 608d 1f3e
000002f0: 5645 f93d 9dbf 0fbe 1abc c8bc f39e f13d
00000300: 3943 7c3d 512b e23a bb55 ef3d 4573 9e3c
00000310: 8dd7 c3bd 4fd1 a53d 43a4 203e e2a2 1f3e
00000320: 71de 91bd 9d3b 333e 6bb6 c93d 4288 183e
00000330: c1fc 06be 94b1 01bc efcc a53d 9935 bf3c
00000340: b9b6 0fbe 049e 21be 7ee6 9c3a 846b bf3c
00000350: 69c0 9c3d db0e e63d 69cd 793c dba8 20be
00000360: d87f e9bd d4eb 2b3c 5be0 1dbe 5691 843d
00000370: 2f4c fe3c 4004 d5bc a366 113e f0a1 c8bb
00000380: 2f8f 94bd 1a6a 25be daaa c23c 6b79 a9bb
00000390: deb1 59bd 88a5 ebbc f368 33be 95d4 66bd
000003a0: f062 ee3c 93fc c7bd 861f 8f3d bafc 2dbe
000003b0: d369 28be ed4e c9bd b594 123e c961 013e
000003c0: 574c 1f3e 4524 333d 6bf4 91bd 222b ec3c
000003d0: 3a8a 5dbd d0ec 0ebe 3729 8abc bc88 e6bd
000003e0: 239e 55bd 9e38 113e 74c6 a4bb 71a9 8b3c
000003f0: c792 d53c e921 84bd 3486 6ebc 96b1 7ebd

rnn.bias_ih_l0 f4 [32]
1.0884712 -1.0513344 0.82542354 -1.1752976 -0.7875484 -0.7618658 0.19760168 -0.5274378
0.9000121 0.4877842 1.051725 -0.6961653 0.60733503 0.39731854 -0.99358636 -0.95111024
0.40162772 0.43543252 0.8505564 -0.5691082 0.92206883 -0.2926685 0.7916636 -0.68483347
-0.7551247 0.56732094 0.37767544 0.78740376 -0.12602733 0.8128878 -0.8111948 -0.053175494
00000000: 0653 8b3f 2092 86bf f54e 533f 2770 96bf
00000010: c69c 49bf a309 43bf 1858 4a3e 2a06 07bf
00000020: 3167 663f dabe f93e ed9e 863f e437 32bf
00000030: 4f7a 1b3f 566d cb3e ad5b 7ebf f67b 73bf
00000040: 26a2 cd3e 03f1 de3e 10be 593f 13b1 11bf
00000050: b40c 6c3f a5d8 95be 77aa 4a3f 3f51 2fbf
00000060: da4f 41bf f23b 113f ad5e c13e 4b93 493f
00000070: 4f0d 01be 6a19 503f 76aa 4fbf 8cce 59bd

rnn.bias_hh_l0 f4 [32]
0.8592882 -0.83100754 0.8800325 -0.9783432 -0.71435225 -0.8084238 0.4237539 -0.31246704
1.0045993 0.5013004 0.91882354 -0.75219977 0.6878608 0.71870065 -1.0188147 -0.7687919
0.42964935 0.19384982 0.95944786 -0.4943053 0.923869 -0.20897003 0.7374039 -0.8085436
-0.54517555 0.4913519 0.29250672 0.85761756 -0.21255854 0.9115815 -0.9002533 -0.3122309
00000000: 50fa 5b3f e9bc 54bf cf49 613f b374 7abf
00000010: cadf 36bf ddf4 4ebf 45f6 d83e aefb 9fbe
00000020: b696 803f 3955 003f 0538 6b3f 2a90 40bf
00000030: a517 303f c4fc 373f 8568 82bf 8ccf 44bf
00000040: 00fb db3e 9180 463e 609e 753f 9615 fdbe
00000050: ae82 6c3f 3dfc 55be 81c6 3c3f b7fc 4ebf
00000060: a090 0bbf 7a92 fb3e 71c3 953e d38c 5b3f
00000070: f2a8 59be 685d 693f 0077 66bf bbdc 9fbe

fc.weight f4 [1, 32]
3.7509055 -2.2834628 2.4463098 -3.618367 -2.3834753 -4.937625 3.4753406 -3.0575864
3.4020822 3.775543 3.5623088 -2.4289553 2.6077397 2.5349402 -3.6115422 -3.0629559
1.9438242 2.266825 3.3698637 -3.1561356 3.9781497 2.2633538 2.2519743 -3.3623993
-2.095408 2.8382938 3.801473 2.6367068 2.724803 1.9734248 -2.457683 -2.9160182
00000000: d60e 7040 4124 12c0 5790 1c40 5393 67c0
00000010: dc8a 18c0 0601 9ec0 fb6b 5e40 7faf 43c0
00000020: b7bb 5940 7fa2 7140 defc 6340 0174 1bc0
00000030: 35e5 2640 763c 2240 8223 67c0 7807 44c0
00000040: 3bcf f83f a913 1140 d9ab 5740 20fe 49c0
00000050: 019a 7e40 cada 1040 5920 1040 8d31 57c0
00000060: 2a1b 06c0 9ba6 3540 554b 7340 cebf 2840
00000070: 2c63 2e40 2f99 fc3f ae4a 1dc0 0ba0 3ac0
