notebooks/DL_saved_models/RNN_Fraud.pt (torch, 31900 bytes, 5 tensors)

rnn.weight_ih_l0 f4 [32, 194]
000000 96 81 b7 3e 0d 24 63 bf f8 2d 57 3f 97 36 64 bf
       0.35841054 -0.88726884 0.8405452 -0.891458
000010 df c4 98 bd d8 aa 00 bf cb c9 56 bf 81 63 16 bf
       -0.07459425 -0.50260687 -0.8390166 -0.5874558
000020 b7 2c 79 3c 18 87 15 be 38 5f 41 bc 14 2e af be
       0.015208415 -0.14602315 -0.011802487 -0.34214842
000030 a5 f9 0b 3d 0c d1 c0 3e fa 8a 0b 3f ce a9 31 3e
       0.034173626 0.3765949 0.54508936 0.17349932
000040 26 00 c2 3d ad 59 39 3f a7 18 28 3e df 21 c1 3e
       0.094726846 0.7240246 0.16415654 0.37721154
000050 61 4b a8 bd 4f b2 e3 bd 45 de dd 3d 9d ec 04 3f
       -0.082175024 -0.11117994 0.1083341 0.51923543
000060 ef 8f 2c 3f e6 a6 e7 3d 45 15 58 3f 58 a4 07 bb
       0.67407125 0.1131113 0.84407455 -0.0020697322
000070 e0 34 43 be 0a 8a 4a 3f 6f 22 18 3f f1 e9 1b 3f
       -0.19063139 0.7911688 0.5942754 0.6090384
000080 c7 6c 53 3f e6 05 0c 3c 43 7f 19 3f 12 e5 70 3c
       0.82587856 0.008546328 0.5995981 0.014703052
000090 c5 2d 0d 3f 48 62 3b 3e 87 ba 32 3f a0 ee 58 3f
       0.55147964 0.1829921 0.6981587 0.8473911
0000a0 69 2c 7f 3e a5 4e 19 3f 05 ed 46 3f a4 d5 f7 3e
       0.24919285 0.5988563 0.77705413 0.48405182
0000b0 4e d8 e4 3e 15 ab f0 bd 96 ef 07 3e 27 2c 3c 3f
       0.44696277 -0.11751381 0.13274989 0.7350487
0000c0 2d de af 3d fe 32 8f be 78 e8 3d be e1 3a 37 3f
       0.085872985 -0.2796859 -0.18545711 0.7157422
0000d0 e9 36 46 3f 32 8f 6f 3d 49 9e 49 3f 54 a1 4a 3f
       0.77427536 0.05848617 0.7875715 0.7915242
0000e0 86 56 4f 3f 45 e7 49 3f 7c 94 44 3f 4a 2d 8a 3d
       0.809914 0.78868514 0.7678907 0.067469195
0000f0 e8 a3 5d 3c 55 e1 20 3f 95 f3 03 3f a4 69 4f 3f
       0.013527848 0.6284383 0.5154355 0.8102057
000100 77 7e 3f 3f a2 8f 03 3e eb 66 5a 3f 42 62 23 3d
       0.74802345 0.1284776 0.8531329 0.039888628
000110 4a 32 59 3f a3 28 5d 3e ff a3 0c 3f f7 90 0b 3f
       0.8484236 0.21597533 0.5493774 0.54518074
000120 36 c8 06 3d ed 28 49 3e 19 63 33 3f 33 bf 20 3e
       0.03290578 0.19644518 0.70073086 0.15697937
000130 40 5a 76 3e 07 16 ff bd fd 6e 4c 3f 2b ac 46 3f
       0.24057865 -0.12455373 0.79856855 0.7760646
000140 5b f1 8f 3d 5b e5 45 3f f2 a6 16 3f f6 c2 a1 3d
       0.07028457 0.77303094 0.5884849 0.07898514
000150 d9 0c 07 3f 86 db 2a 3f b5 53 5c bd 37 dc ee 3d
       0.5275398 0.66741216 -0.053790767 0.116630964
000160 f3 96 df 3d a7 e3 a8 be 94 2a dc be 30 6c d2 3d
       0.10917463 -0.32986185 -0.43001235 0.102745414
000170 ea 12 09 3f 77 23 5b 3f 46 d3 b8 be c0 a1 3e 3d
       0.53544486 0.8560099 -0.3609869 0.046540976
000180 42 a0 50 3f 16 eb 78 be 63 93 58 3f b2 18 10 bd
       0.81494534 -0.24308428 0.84599894 -0.0351798
000190 cc 29 16 be 9c 20 ea 3e c2 c0 51 be 1c ea 06 3f
       -0.14664382 0.45728004 -0.20483688 0.5270097
0001a0 a5 82 15 3f 19 2a 1b 3d 27 92 54 3f b1 5d 5c 3f
       0.5840247 0.037881944 0.8303551 0.8608046
0001b0 d4 85 99 3d d3 bd 30 3f 93 3b af 3d 30 ed d8 bd
       0.07496229 0.6903965 0.08556285 -0.10592115
0001c0 6a f4 37 3f 17 fc 5b 3f 97 29 39 3f 9d 07 40 3f
       0.7185732 0.85931534 0.72329086 0.75011617
0001d0 02 df c0 3c 87 e9 4c 3f 23 1a 71 3e 91 95 1d 3f
       0.023543838 0.80043834 0.23545127 0.61556345
0001e0 f6 8d b7 bd 05 c5 54 3e 83 b6 17 3f 9c f6 f4 3e
       -0.08962624 0.20778282 0.59262866 0.47844398
0001f0 cf 79 57 3f c7 10 86 3d 3f ff 05 3f c5 af d3 3d
       0.8417024 0.06546169 0.523426 0.1033626
000200 07 a0 01 3f 11 74 2d 3f 94 3e 0a 3f 23 ef 12 3e
       0.5063481 0.6775523 0.54001737 0.14349036
000210 55 30 04 3f d6 4c 35 be a6 d1 5c 3f 43 5b 21 3f
       0.5163625 -0.17705092 0.862574 0.6302988
000220 31 97 e6 bc bc eb 03 bf 20 43 13 3f b3 37 c4 3d
       -0.028148266 -0.5153158 0.575243 0.09580936
000230 88 8d 0d 3f fc 77 5b 3f 08 df 4a 3f dc 73 e9 3c
       0.55294085 0.85729957 0.7924657 0.028497629
000240 4b 4f 57 be b6 d5 24 3f 79 6c d5 3b db 6a 92 bd
       -0.21026342 0.64388597 0.006513175 -0.07149287
000250 ec a1 31 3f ba 31 48 3f f1 c5 2a 3f 73 a5 14 3d
       0.693877 0.78200877 0.66708285 0.036290597
000260 cf bc ec be e8 c7 14 3f 47 d2 3d 3f 07 00 49 bd
       -0.462378 0.5811753 0.7414898 -0.04907229
000270 1b 10 58 3f 38 cb cf be b1 07 c0 3e ed e7 40 3f
       0.84399575 -0.4058473 0.37505868 0.7535389
000280 a3 e3 13 3f 10 57 ba bc 69 26 fa 3b 54 a4 9b 3d
       0.5776922 -0.022746593 0.0076339734 0.075997025
000290 e1 d3 64 3d 96 4f 8c 3d 68 c5 61 3e d1 d9 f9 3d
       0.055866126 0.06851117 0.22047961 0.12199748
0002a0 60 ef 40 3f 72 59 fd 3e dd 57 64 be 19 b1 03 3f
       0.7536526 0.49482304 -0.22299142 0.51442105
0002b0 91 09 cd 3c 0b aa 3c 3f dc d0 4f 3f 0d 61 33 3e
       0.025028976 0.73696965 0.8117807 0.1751749
0002c0 1f 99 dc 3e 80 b1 8e bc 79 23 05 bd c5 23 07 bd
       0.43085572 -0.017418623 -0.032504532 -0.032993097
0002d0 3c 6e 2a 3f 18 82 ad be 3b cb fc 3d c8 3e 15 bf
       0.66574454 -0.33888316 0.12343451 -0.5829892
0002e0 f7 92 58 bf 50 ac 7a 3c 28 c6 59 3f 4f 4a 50 3f
       -0.8459925 0.015299872 0.8506799 0.81363386
0002f0 65 ee ba 3d 82 73 9d be 50 34 41 3f bd 96 37 3f
       0.091275014 -0.30752188 0.7547045 0.71714383
000300 02 3f 14 3f ea 8e 0c 3f 70 05 45 3e 92 eb ec be
       0.5790864 0.5490557 0.19240355 -0.46273476
000310 14 ad d0 3e 9b ee 57 3f ef bb 2d 3e 3e 2d e0 3d
       0.40757048 0.8434846 0.16966222 0.10946129
000320 cf bc 16 3e 2c ce c3 be ac fa 4a 3f 6d a8 0b 3f
       0.14720462 -0.38243234 0.79288745 0.5455387
000330 e4 23 88 3e 0e 8c 7f bd fc 5a c1 bd 6a a8 45 3e
       0.26589882 -0.062389426 -0.09441182 0.19302526
000340 60 79 4e be 69 e3 cf bd 65 b5 59 3c 6b 76 a9 bd
       -0.20163488 -0.10150797 0.013287877 -0.082745396
000350 50 7d b3 be 2e d4 15 be 64 93 57 be 59 8b dc bd
       -0.35056543 -0.14631721 -0.21052319 -0.10768766
000360 30 3a 82 be f6 a1 92 be ed bf 19 3d 86 69 dc 3c
       -0.2543502 -0.2863919 0.03753655 0.026905786
000370 e4 ce 6c be 17 9e 46 bd 1c 99 7c be 68 a4 3d 3d
       -0.23125798 -0.04849061 -0.24667782 0.04629937
000380 1a 4f 80 be 9d aa f6 bd 73 6b 64 be 47 f0 1d be
       -0.2506035 -0.12044261 -0.22306614 -0.1542369
000390 da 98 2b be 89 10 13 bd f8 2b 8e be 76 68 5b be
       -0.16757527 -0.03590444 -0.2776792 -0.21426567
0003a0 a0 36 fb 3c e6 fa e8 3c f5 ba d7 3b ef 86 09 3d
       0.030665696 0.02843995 0.0065835663 0.03357595
0003b0 35 e3 78 3c e8 eb 3a 3d 5d a6 0b be c1 7d cf be
       0.015190889 0.045635134 -0.13637681 -0.4052563
0003c0 75 5a dc 3c dc 06 88 be 1e 58 4c be ac 0c 53 bf
       0.026898602 -0.26567733 -0.19955489 -0.8244121
0003d0 71 2a 90 be c8 46 2d 3d 77 02 21 3d ea 7d 0b be
       -0.2815738 0.04230383 0.03930899 -0.13622251
0003e0 96 a9 4c be 26 3a 42 bd 59 5d 3f 3d a3 e1 5c be
       -0.19986567 -0.047418736 0.046719883 -0.21570449
0003f0 50 f3 0b bd 57 60 1f be 9b 2b a5 be 0c a3 d1 3c
       -0.034167588 -0.15564094 -0.3225983 0.025590442

rnn.weight_hh_l0 f4 [32, 32]
000000 cc 74 03 3e 49 93 87 bd a9 35 c6 bd 97 e2 10 3e
       0.12837523 -0.06619889 -0.096782036 0.14148937
000010 56 03 ce 3c 0b cc 8d 3d 64 6d 09 3b a2 69 20 3e
       0.025148075 0.06923684 0.0020969743 0.15665296
000020 5a b0 b6 3d 9a 2f 86 bc 51 33 b8 bd 3f 98 f9 3d
       0.08920355 -0.01638012 -0.08994163 0.12187242
000030 4d f3 04 be ce 02 74 bd 2e 7a 27 bd 60 39 dd bc
       -0.12983437 -0.059572987 -0.040888004 -0.027004898
000040 b6 a9 a5 3d 10 a0 e1 bc 54 72 a0 bd fd af 38 bc
       0.080890104 -0.027542144 -0.07834306 -0.011272428
000050 1b 6f d2 bb 82 83 c4 3c e5 f9 03 3e ae 10 29 bd
       -0.006421936 0.023988489 0.12888296 -0.041275673
000060 41 e7 10 3e 4d 87 4e 3d e0 dc 86 bd f3 62 ad bd
       0.14150716 0.050422 -0.06585097 -0.08466139
000070 cd 01 26 bd e1 8f 25 3e f0 1b 73 3d d9 31 c0 bd
       -0.04052906 0.16168167 0.059352815 -0.09384508
000080 6b 47 93 bc 7a e5 a2 bd ed d4 d9 bd 62 25 5c bd
       -0.01797839 -0.079539254 -0.106363155 -0.05374659
000090 07 42 c1 3d 58 61 92 3c 05 d0 31 be 17 b2 dd 3d
       0.09436422 0.017868683 -0.1736451 0.108249836
0000a0 9e ff 2b be f9 2e 28 be a8 97 d6 3c da 33 fa bb
       -0.16796729 -0.16424169 0.026195362 -0.0076355757
0000b0 ca 0f 50 bc ee ad 03 3e 33 48 44 bd 1b 0e ea bd
       -0.012699077 0.12859318 -0.047920417 -0.11428472
0000c0 5e 78 fe 3d c3 3d 78 bd 96 c2 6c 3d 6a 13 58 bd
       0.12425302 -0.060605776 0.05780276 -0.05275289
0000d0 c2 bf 23 be 54 0c 46 3d 23 47 22 be ad d5 1b be
       -0.15991119 0.0483516 -0.15847449 -0.1521823
0000e0 dd 5b 6f bd 63 41 c1 bc 54 0b fa bd 70 72 31 3d
       -0.058437217 -0.02359075 -0.12209192 0.043322027
0000f0 f2 3a 2c 3e ec 79 fc 3d ab 82 3c bd 44 4c 14 3e
       0.16819361 0.12327942 -0.046023052 0.14482218
000100 85 6f 83 bd 82 e1 26 be cd 5f 0c be 6b d8 2d 3c
       -0.06417755 -0.16296962 -0.1370842 0.01061068
000110 a0 69 80 bd 13 b3 70 3d 1d b2 48 3c 74 f2 5e 3d
       -0.06270146 0.05876453 0.012249497 0.05443044
000120 5e fc cf bd bc 0e c0 bd 87 19 10 3e 89 08 21 3e
       -0.10155557 -0.0937781 0.14072238 0.15725912
000130 0c 6d 07 3d 4a 37 00 be 72 f4 27 3e b1 a5 e2 bd
       0.03306298 -0.12521091 0.16401842 -0.110667594
000140 87 57 84 bd e1 64 b6 bd c5 86 f6 bd 25 01 81 3d
       -0.06462007 -0.0890596 -0.12037424 0.062990464
000150 76 85 cf 3b 91 72 5c bd 1f 99 24 3e 84 8c f0 b9
       0.0063330485 -0.053820197 0.16074036 -0.0004588106
000160 4e d1 28 bd bc f3 5e 3d 27 e9 20 3e a4 d7 a5 3d
       -0.041215234 0.054431662 0.1571394 0.08097771
000170 dd 54 0d bd 3b a8 a7 3d 47 95 ca 3d c0 cb e7 bd
       -0.03450476 0.08186384 0.09891754 -0.11318159
000180 17 c1 25 3e fc 40 d7 bd 0e f4 65 ba 34 6a 23 3e
       0.16186939 -0.10510442 -0.0008772024 0.15958482
000190 5b 74 b4 3d 48 54 05 3e 60 4b b9 3b f2 e6 59 3b
       0.088112555 0.13020432 0.0056547374 0.0033249226
0001a0 5e 9a 31 be 71 eb a9 3b 10 bd 3d bd 7f 89 77 bb
       -0.17344043 0.0051855375 -0.046322882 -0.0037771163
0001b0 a9 10 e1 3d 90 f5 17 be d9 c9 fa bd 2b 8b 3d bc
       0.10989506 -0.14839768 -0.12245531 -0.011568825
0001c0 95 86 80 3d 37 ea be 3d cb e6 29 3e bc 7a 26 3e
       0.062756695 0.09322017 0.16591947 0.16257757
0001d0 fb fc 2c be 69 64 e7 bd 38 0c 2e be d2 15 ee 3d
       -0.1689338 -0.112984486 -0.16996849 0.11625256
0001e0 2d 50 a5 3d 61 b6 b7 bc 81 9d d7 3c bb 47 eb bd
       0.08071933 -0.022425832 0.02632022 -0.11488291
0001f0 ef 49 1c be 1c 58 c2 bd e2 e9 24 be 78 8d 17 3d
       -0.15262578 -0.09489462 -0.16104844 0.03700015
000200 46 78 85 bd 05 21 51 3d 5d 03 ae 3d dd a0 10 3e
       -0.06517081 0.05105688 0.08496735 0.14123864
000210 87 27 16 3e c7 37 45 3b cb 18 5b 3d 28 e7 31 bc
       0.14663516 0.003009306 0.05349044 -0.010858335
000220 44 ef 98 3c 2c 9d 18 3d da dd 79 bc e9 a0 11 3e
       0.018668778 0.037259266 -0.015250647 0.14221539
000230 fd ee 28 be cc 3d 09 3e 24 7f e4 3d 2b d8 2c be
       -0.16497417 0.1340248 0.11157063 -0.16879337
000240 4e cb c6 bd 20 3f 0d 3e c7 fd 6d 3d 99 17 30 be
       -0.09706746 0.13793612 0.05810335 -0.17196502
000250 10 81 c9 bd b2 85 e6 bd d3 a9 d9 3c fa f6 0b 3d
       -0.0983907 -0.11255969 0.026570236 0.034171082
000260 81 ad 17 3e 72 3c 1e bd 75 39 da bd 31 a0 08 3e
       0.1481228 -0.038631864 -0.1065549 0.13342358
000270 fb 79 0c be dd bd 25 3e cc c8 f0 3d de 57 5d 3d
       -0.13718407 0.16185708 0.11757049 0.054038875
000280 56 31 99 3d f3 c0 b1 bd 01 82 62 bd 11 50 dd bd
       0.07480113 -0.0867938 -0.055299763 -0.10806287
000290 34 6c 10 3d 51 3a c1 3c e3 9c 92 3d 4d 5d 13 3e
       0.03525944 0.023587378 0.0715883 0.1439106
0002a0 17 3b 14 be f2 74 03 3e 9b 2b 44 3c e9 cb df bb
       -0.14475666 0.1283758 0.011973287 -0.006829728
0002b0 18 d4 4d 3c a9 12 ff bd 00 44 f9 bd 30 c2 53 3d
       0.012562774 -0.12454731 -0.12171173 0.051698864
0002c0 fc 68 e5 3d 4b 81 dc bd 8a a0 ef bd c7 34 23 3e
       0.11201665 -0.10766848 -0.11700542 0.15938102
0002d0 72 3c a4 3d e0 4c 42 3d 9f 6f 85 ba d5 7b 28 be
       0.080193415 0.047436595 -0.001018036 -0.16453488
0002e0 ab ad 04 be 36 42 98 3d 47 dc e3 bd 62 d8 83 bd
       -0.12956874 0.07434504 -0.11125999 -0.06437756
0002f0 7b 4d d5 bd 22 9a 2a be f2 4b dd bd 01 c6 3b 3d
       -0.10415169 -0.1666036 -0.10805501 0.045843128
000300 d0 97 14 3e f5 61 e3 bd 68 9b a9 3c a4 fd 1e bd
       0.14511037 -0.11102668 0.020703986 -0.03881611
000310 c9 37 02 3e f5 29 00 3e 49 0b 36 3d 27 60 fb bc
       0.12716593 0.12516005 0.044444356 -0.030685497
000320 8b 4f a5 3d a2 4e f6 bd 9f 46 ce bd fe 5a 11 be
       0.08071812 -0.12026717 -0.10072064 -0.14194867
000330 fe 9a 82 3d 20 6c bf bd 53 fc 87 bc 30 ab 13 3e
       0.06377219 -0.09346795 -0.01659981 0.14420772
000340 70 62 c7 3d aa 04 eb 3c f3 2f f4 3d f5 51 0f be
       0.09735572 0.028688747 0.11923208 -0.13996108
000350 e6 c5 02 be 82 a9 f8 3c 35 08 1f 3e 61 9b 17 3e
       -0.12770805 0.030354265 0.15530474 0.14805366
000360 b4 f4 25 3e 85 49 6f 3d 78 2b 99 bd 5a ec 52 3d
       0.16206628 0.058419723 -0.07478994 0.051494934
000370 77 01 2d 3e b4 ab c8 bd 2b 83 0f 3d ac d7 07 3e
       0.1689509 -0.09798375 0.0350372 0.13265866
000380 98 06 9e bd 04 e5 2d 3e 4c ea 24 be 4f 9d 0b bd
       -0.077161014 0.16981894 -0.16105002 -0.034085568
000390 73 78 83 bd af 14 35 bd 58 46 d1 bd 3b 2a 34 3e
       -0.06419458 -0.04420918 -0.10218495 0.17594235
0003a0 2f 3d 01 3e a7 bc d7 3d 67 c9 33 bd 0d 17 bf bd
       0.12620996 0.105340295 -0.043893244 -0.093305685
0003b0 1c 11 01 bd 2a 8e 76 bd ae ba e7 bd 59 5d ca bd
       -0.031510457 -0.060194172 -0.11314903 -0.09881086
0003c0 f4 98 7d bd 5f 59 ff bb b0 b9 be bd 9c 15 20 3d
       -0.061913446 -0.0077926363 -0.09312761 0.03908311
0003d0 e9 3e 23 3e 8f 41 a5 3d 34 54 95 3d 3b ae 79 bd
       0.15941967 0.08069145 0.07291451 -0.060957175
0003e0 77 19 d5 bb 35 71 17 3d 4e 7b 0b 3e 48 25 00 3e
       -0.00650328 0.036973197 0.13621256 0.12514222
0003f0 18 13 b7 bd bd 7a fa bd 5b b3 1d 3e 3a b2 7e bc
       -0.08939189 -0.12230442 0.1540045 -0.015545422

rnn.bias_ih_l0 f4 [32]
000000 51 f2 52 bf 67 54 94 3e 54 f4 f0 3e 35 a1 1a bc
       -0.82400995 0.28970644 0.47061408 -0.009437849
000010 8b 81 da 3d 06 e6 f9 3e b9 6a 6e bf 05 27 04 bf
       0.106692396 0.48808306 -0.93131596 -0.5162204
000020 be 34 39 be bd 12 ce be 4d 61 9d 3f 56 93 cf 3f
       -0.18086526 -0.4024867 1.2295319 1.6216838
000030 9c f2 74 bf 18 d6 12 3e 03 5f a8 3f 46 45 08 bf
       -0.9568269 0.14339483 1.3153995 -0.532307
000040 10 3d 2d bf dc b5 18 3f b2 38 34 bf 5f 92 a5 bf
       -0.676713 0.59652495 -0.7039901 -1.2935294
000050 9f bb e1 3e fb 19 33 3f 50 c1 14 bf 82 0a 19 3e
       0.44088456 0.6996152 -0.5810747 0.14945415
000060 cc 04 c2 be aa d5 3d be 30 8f 1f 3e b4 dc 57 3e
       -0.37894285 -0.18538538 0.15581965 0.21080285
000070 ab 21 98 3f 89 f3 d5 be 1c f4 f4 3e fd 4e be bf
       1.1885275 -0.41787365 0.4784249 -1.4867855

rnn.bias_hh_l0 f4 [32]
000000 97 88 1b bf 41 37 8e 3e 96 92 34 3f ae d6 60 3b
       -0.60755295 0.2777653 0.7053617 0.0034307647
000010 78 3e ef 3c a4 44 fa 3e 6f a1 5d bf e7 e7 80 be
       0.029204592 0.48880494 -0.86574453 -0.25176927
000020 00 ba 78 be 73 2a af be 49 db b1 3f 32 21 d9 3f
       -0.24289703 -0.34212074 1.3895046 1.6963255
000030 ba b2 41 bf 7b ee 9c bd 19 1b 94 3f 64 e9 3a bf
       -0.7566334 -0.07662674 1.157077 -0.73012376
000040 0a 95 26 bf c9 05 f4 3e ec 42 c2 be ed 55 93 bf
       -0.65071166 0.47660664 -0.37941682 -1.1510597
000050 ef 82 f4 3e af 81 26 3f c8 e6 29 bf d2 7f 68 3e
       0.47756144 0.6504163 -0.6636777 0.2270501
000060 b4 f8 35 be 6d 5b b3 be d1 e3 71 3e 5a 82 d8 3d
       -0.17770654 -0.3503069 0.23622061 0.105717376
000070 51 4d aa 3f 79 14 a9 be 1a 86 8a 3e cb fc af bf
       1.3304845 -0.33023432 0.27055436 -1.3749021

fc.weight f4 [1, 32]
000000 c2 92 39 bf 70 cc 5c bf e3 ee 21 3f cc 28 38 bf
       -0.7248956 -0.86249447 0.6325514 -0.7193725
000010 41 09 37 bf 87 4d 23 3f c1 31 6d bf a3 af 7c bf
       -0.71498495 0.6379017 -0.92654043 -0.987055
000020 07 3d 44 bf 5c ea 0f bf 47 08 08 c0 a2 aa 52 c0
       -0.7665562 -0.5621698 -2.1255052 -3.2916646
000030 67 48 6c bf b4 28 66 bf ca db 7d 3f 63 08 50 3f
       -0.9229798 -0.8990586 0.99163496 0.812628
000040 cd 81 35 bf f5 6f 9b 3f 85 7f 11 bf 96 0e d2 bf
       -0.70901185 1.2143542 -0.56835204 -1.6410701
000050 05 5f 40 3f c4 fd 1a 3f 81 88 c1 bf 7b 12 ae bf
       0.7514499 0.60543466 -1.5119783 -1.359939
000060 05 b7 40 bf ed 4b 11 3f b3 54 50 3f 71 05 1f 3f
       -0.75279266 0.5675648 0.8137924 0.6211768
000070 c7 8c 01 c0 39 ea 18 bf 46 3e 79 3f ba 9d f8 3f
       -2.0242174 -0.59732395 0.97360647 1.9423134
